Model/tflite/face_parse.tflite (tflite, 825592 bytes, 156 tensors)

model/batch_normalization_12/FusedBatchNormV3_add_param f4 [32]
0	0xbe5fcc64	-0.21855313
1	0xbd94d364	-0.07266882
2	0xbf092874	-0.5357735
3	0xbf4a218b	-0.7895743
4	0xbf39c527	-0.72566456
5	0xbf27f522	-0.6560842
6	0xbeda198b	-0.42597613
7	0xbf814a55	-1.0100809
8	0xbf067bba	-0.5253254
9	0xbf535716	-0.8255476
10	0xbf5068e6	-0.8141006
11	0xbf4717e6	-0.7777084
12	0xbf39bcfb	-0.72553986
13	0xbfad346f	-1.3531626
14	0xbe0f3038	-0.13983238
15	0xbe9ed32f	-0.31020495
16	0xbeed558a	-0.46354324
17	0xbf08f3e0	-0.53497124
18	0xbeeaa21d	-0.45826808
19	0xbf9beeb8	-1.2182226
20	0xbebcdb84	-0.36886227
21	0xbf2e2fbc	-0.68041587
22	0xbf7fa13a	-0.9985539
23	0xbf5d85ee	-0.86532485
24	0xbeb29875	-0.3488194
25	0xbeba7509	-0.36417416
26	0xbefdf23b	-0.4959887
27	0xbf2f1519	-0.6839157
28	0xbee555e2	-0.44792086
29	0xbf8bd825	-1.0925337
30	0xbf6f0c5d	-0.9337824
31	0xbf3e5394	-0.7434628

model/batch_normalization_12/FusedBatchNormV3_mul_0_param f4 [32]
0	0x3fa71d65	1.3055845
1	0x40032370	2.049038
2	0x3fabc706	1.3420112
3	0x3f3ecd4d	0.74532014
4	0x3fae4250	1.3613987
5	0x3faaf565	1.3356138
6	0x3fe73151	1.8061925
7	0x3fc500f4	1.5390916
8	0x3f7e5c18	0.99359274
9	0x3fac04be	1.3438947
10	0x3f99b168	1.2007265
11	0x3fed79cb	1.8552793
12	0x3f6812da	0.90653765
13	0x400e4246	2.222795
14	0x3fc8ce53	1.5687965
15	0x3fabca20	1.3421059
16	0x3fddb6d8	1.7321424
17	0x4006b3f4	2.1047335
18	0x3ff29b4a	1.895364
19	0x3fdaed99	1.7103759
20	0x3f8a3924	1.0798688
21	0x3fac6d30	1.3470821
22	0x3fd91138	1.695838
23	0x3facfb3d	1.3514172
24	0x3fbbbbef	1.4666728
25	0x3fb4b6f0	1.4118328
26	0x3f93d7bc	1.1550212
27	0x3fe909f1	1.8206159
28	0x3f929bf1	1.145384
29	0x3f37309d	0.71558553
30	0x3ff3dc66	1.9051635
31	0x3f89e339	1.0772468

model/batch_normalization_16/FusedBatchNormV3_add_param f4 [32]
0	0xbf4e84e5	-0.8067153
1	0xbee93512	-0.45548302
2	0xbf3abd8d	-0.7294548
3	0xbf3a7717	-0.72837967
4	0xbf1b46af	-0.6065473
5	0xbf2ac612	-0.6670848
6	0xbefba25f	-0.49147317
7	0xbe995576	-0.29948014
8	0xbf86917e	-1.0513151
9	0xbf39deeb	-0.7260577
10	0xbf455ed5	-0.7709783
11	0xbf3864bb	-0.720287
12	0xbeb2f929	-0.3495572
13	0xbf0cf8e2	-0.55067265
14	0xbea39f2e	-0.31957382
15	0xbf3a9b07	-0.728928
16	0xbf2e1f1c	-0.6801622
17	0xbf27787c	-0.6541822
18	0xbe7355ce	-0.237632
19	0xbeacebc1	-0.33773616
20	0xbee15190	-0.4400754
21	0xbf4312a8	-0.7620034
22	0xbfdf5e98	-1.7450743
23	0xbdafe940	-0.08589411
24	0xbf3f7057	-0.7478079
25	0xbf1c5bd8	-0.6107764
26	0xbf631a3f	-0.88711923
27	0xbf4d7d9b	-0.80269784
28	0xbeb642d1	-0.35597852
29	0xbf81bd7f	-1.0135955
30	0xbf4b5464	-0.79425645
31	0xbf6c2d07	-0.92256206

model/batch_normalization_16/FusedBatchNormV3_mul_0_param f4 [32]
0	0x3fc6834c	1.5508819
1	0x3f9c2214	1.21979
2	0x3f9f91dd	1.2466389
3	0x3fd945a9	1.6974384
4	0x3f69f8e4	0.913954
5	0x3fe32903	1.7746891
6	0x3fa39072	1.2778456
7	0x3fdf48b9	1.7444068
8	0x3fa209b1	1.2659208
9	0x3fd48d4c	1.660562
10	0x3fd59c75	1.6688372
11	0x3fd567e1	1.6672326
12	0x3f8c8b3c	1.0979991
13	0x3fb6e790	1.4289417
14	0x3feb012c	1.8359733
15	0x3f8d8e45	1.1059042
16	0x3fb6d835	1.4284731
17	0x3f6841c1	0.9072533
18	0x3fc07e8b	1.5038618
19	0x3f8ed9fe	1.1160276
20	0x3fb5b563	1.419598
21	0x3f766e67	0.9626221
22	0x40151fd2	2.3300672
23	0x3fb6452b	1.4239858
24	0x3fa9e5e2	1.327328
25	0x3fac3004	1.3452153
26	0x3fb09dcc	1.3798156
27	0x3fcccd47	1.6000146
28	0x3fb70b46	1.4300315
29	0x3f9ccdfd	1.2250363
30	0x3f6634e0	0.8992443
31	0x3faa1135	1.3286501

model/batch_normalization_20/FusedBatchNormV3_add_param f4 [48]
0	0xbec8a615	-0.3918921
1	0xbe9f78e8	-0.31146932
2	0xbf03d6eb	-0.51499814
3	0xbe8c8bcc	-0.27450407
4	0xbe938919	-0.28815535
5	0xbf3e76de	-0.74400127
6	0xbec3dc74	-0.3825413
7	0xbefa2e8d	-0.4886364
8	0xbed4168e	-0.41423458
9	0xbe6e8596	-0.23293146
10	0xbed1289d	-0.40851298
11	0xbed40d2d	-0.41416302
12	0xbf11a3bd	-0.5689047
13	0xbf1aff1a	-0.60545504
14	0xbee6198e	-0.44941372
15	0xbf544c0d	-0.82928544
16	0xbeef0800	-0.4668579
17	0xbea01474	-0.31265604
18	0xbf353869	-0.707892
19	0xbf15aac7	-0.5846371
20	0xbf077e25	-0.52926856
21	0xbecc8fca	-0.39953452
22	0xbee453eb	-0.44595274
23	0xbead835b	-0.3388928
24	0xbe93bf93	-0.28857097
25	0xbe3ab7ac	-0.18234128
26	0xbf0becf5	-0.5465844
27	0xbeeda766	-0.46416777
28	0xbd9afb18	-0.075674236
29	0xbe00931a	-0.12556115
30	0xbedba31f	-0.4289789
31	0xbed09ffc	-0.40747058
32	0xbea89c44	-0.3293172
33	0xbe583742	-0.21114829
34	0xbf001bd3	-0.50042456
35	0xbef89d46	-0.4855749
36	0xbe9edf4c	-0.31029737
37	0xbf03997a	-0.5140606
38	0xbeef0f71	-0.46691468
39	0xbeb12ef5	-0.34606138
40	0xbe698a72	-0.22806719
41	0xbea0eaeb	-0.31429228
42	0xbecc5105	-0.39905563
43	0xbee21690	-0.4415784
44	0xbec32fd3	-0.38122424
45	0xbea98231	-0.3310714
46	0xbde9092c	-0.113787025
47	0xbf34c365	-0.7061065

model/batch_normalization_20/FusedBatchNormV3_mul_0_param f4 [48]
0	0x3ee87017	0.45398018
1	0x3f4ee78b	0.80822057
2	0x3f54d664	0.83139634
3	0x3f3e508e	0.74341667
4	0x3f2bca7d	0.6710585
5	0x3fa71c85	1.3055578
6	0x3f1dd892	0.61658585
7	0x3f5be30f	0.8589334
8	0x3f38f128	0.72242975
9	0x3f319c6e	0.6937932
10	0x3f3df88c	0.7420738
11	0x3f6c1809	0.92224175
12	0x3f67d08f	0.9055261
13	0x3f87b670	1.060255
14	0x3f30874a	0.68956435
15	0x3fb8f578	1.4449911
16	0x3f4ce630	0.8003874
17	0x3f332f3d	0.69993955
18	0x3f8c1810	1.0944843
19	0x3f92ed98	1.1478758
20	0x3f94e4ee	1.1632364
21	0x3f52e0ed	0.8237446
22	0x3f97922d	1.1841484
23	0x3f29b729	0.66295105
24	0x3f858c16	1.0433376
25	0x3ed5e14b	0.41773447
26	0x3fa1a144	1.2627339
27	0x3f323ee1	0.69627196
28	0x3f7c559c	0.9856813
29	0x3f4925ee	0.785735
30	0x3f44665e	0.767187
31	0x3f154da2	0.58321583
32	0x3f427054	0.7595265
33	0x3f4ad540	0.79231644
34	0x3f7099a8	0.9398446
35	0x3f353a18	0.7079177
36	0x3f34a4bd	0.7056387
37	0x3f02cf92	0.5109798
38	0x3f6a0454	0.91412854
39	0x3f3408fd	0.70326215
40	0x3f54b9c6	0.8309597
41	0x3fcb96aa	1.5905354
42	0x3f4b3deb	0.79391354
43	0x3f4bf021	0.7966328
44	0x3f0070a6	0.5017189
45	0x3f4a7d16	0.79097116
46	0x3f1bfdd0	0.6093416
47	0x3f96bf13	1.1777061

model/batch_normalization_24/FusedBatchNormV3_add_param f4 [48]
0	0xbf028a75	-0.5099252
1	0xbeb339fa	-0.3500517
2	0xbeb40955	-0.3516337
3	0xbef510ec	-0.47864473
4	0xbeed3e0c	-0.463364
5	0xbf158aa0	-0.5841465
6	0xbef5a592	-0.47977883
7	0xbeb64d68	-0.3560593
8	0xbf399702	-0.72496045
9	0xbe9c7204	-0.30555737
10	0xbf07ea14	-0.5309155
11	0xbf1dfc0c	-0.6171272
12	0xbf395a11	-0.72403055
13	0xbf0fefa3	-0.5622503
14	0xbee85fb0	-0.45385504
15	0xbefee60c	-0.49784887
16	0xbeccee21	-0.40025428
17	0xbee1c7b1	-0.44097665
18	0xbf17c7c8	-0.59289217
19	0xbef6d9d0	-0.48213053
20	0xbf20e59a	-0.62850344
21	0xbeb58188	-0.35450387
22	0xbf00dd79	-0.5033794
23	0xbeff5955	-0.49872842
24	0xbeb6e4f3	-0.3572155
25	0xbf0aa066	-0.54151
26	0xbeea37e3	-0.45745763
27	0xbf26cfc4	-0.65160775
28	0xbda6f8a0	-0.0815289
29	0xbe8f44c0	-0.2798214
30	0xbeae4cc4	-0.34042943
31	0xbf00cfd4	-0.5031712
32	0xbf01452b	-0.50496167
33	0xbe990831	-0.29889062
34	0xbeceaaca	-0.40364677
35	0xbf72e88c	-0.9488609
36	0xbf4189e0	-0.75601006
37	0xbf3076fe	-0.6893157
38	0xbec88c67	-0.39169618
39	0xbf0c10ab	-0.54712933
40	0xbf26e6ba	-0.6519581
41	0xbee03a37	-0.43794414
42	0xbec9503c	-0.39319026
43	0xbf1bd6e5	-0.6087478
44	0xbf1e3cc4	-0.6181147
45	0xbea432f5	-0.32070127
46	0xbec78890	-0.38971376
47	0xbedbe3e0	-0.42947292

model/batch_normalization_24/FusedBatchNormV3_mul_0_param f4 [48]
0	0x3f70e90f	0.9410562
1	0x3fbf27b4	1.4933991
2	0x3f37be90	0.7177515
3	0x3f99adc0	1.2006149
4	0x3f6a6cab	0.91572064
5	0x3f82540f	1.0181903
6	0x3f72efc7	0.9489712
7	0x3faa9315	1.3326136
8	0x3f95b090	1.1694508
9	0x3f540354	0.8281758
10	0x3f917e28	1.1366625
11	0x3f8182b8	1.0118017
12	0x3f9f9c2c	1.2469535
13	0x3f3d5f11	0.73973185
14	0x3f35982d	0.70935327
15	0x3f55b861	0.83484465
16	0x3f8bac8c	1.0912032
17	0x3f917324	1.1363263
18	0x3f4e20ee	0.80518997
19	0x3fac299a	1.3450196
20	0x3f8cb5df	1.0993003
21	0x3f48a133	0.7837097
22	0x3fa86c67	1.3158082
23	0x400c2a98	2.1900997
24	0x3fa28139	1.2695686
25	0x3f831697	1.0241269
26	0x3f97364a	1.1813443
27	0x3f82fb66	1.0232971
28	0x3fd3f7f7	1.6560048
29	0x3f9082e5	1.1289946
30	0x3f8a20b3	1.0791229
31	0x3f6676ee	0.9002522
32	0x3f90a263	1.1299556
33	0x3f4d354e	0.8015946
34	0x3f5b57dc	0.8568094
35	0x3fa6283f	1.2981032
36	0x3fa504d3	1.2892097
37	0x3f4622f6	0.77397096
38	0x3f7fc0b6	0.9990343
39	0x3f96aa60	1.1770744
40	0x3fac52be	1.3462751
41	0x3f9146e0	1.1349754
42	0x3f8b585d	1.0886341
43	0x3f8ca3ec	1.0987525
44	0x3f934ba8	1.1507463
45	0x3f82af1b	1.0209688
46	0x3f7f7239	0.99783665
47	0x3f99af46	1.2006614

model/batch_normalization_28/FusedBatchNormV3_add_param f4 [48]
0	0xbef43074	-0.47693217
1	0xbe207e55	-0.15673192
2	0xbf2cfd26	-0.67573774
3	0xbecb8144	-0.3974706
4	0xbf2cf778	-0.6756511
5	0xbf31a108	-0.6938634
6	0xbf4c3e5e	-0.79782665
7	0xbec0ac32	-0.37631375
8	0xbf28bbdd	-0.65911657
9	0xbf19f0e1	-0.6013318
10	0xbeea77a9	-0.45794418
11	0xbee7283c	-0.45147884
12	0xbf51b334	-0.8191407
13	0xbf2a7ca7	-0.66596454
14	0xbf0a2e83	-0.5397722
15	0xbf294135	-0.66115123
16	0xbf154840	-0.5831337
17	0xbed3d913	-0.41376552
18	0xbf784649	-0.96982247
19	0xbf0f6af1	-0.56022555
20	0xbf09ac49	-0.5377851
21	0xbf2f9573	-0.68587416
22	0xbf06ca6a	-0.5265261
23	0xbef6fa66	-0.48237914
24	0xbefd5b5c	-0.49483764
25	0xbe984e63	-0.29747304
26	0xbf228496	-0.6348356
27	0xbf3a1a78	-0.7269664
28	0xbf28e183	-0.65969104
29	0xbede9964	-0.43476403
30	0xbf00bcfa	-0.50288355
31	0xbf37dfea	-0.7182604
32	0xbeec14ab	-0.46109518
33	0xbed47d8e	-0.4150204
34	0xbeed39a0	-0.46333027
35	0xbf177873	-0.59168166
36	0xbf338540	-0.701252
37	0xbf52fe28	-0.8241906
38	0xbf43d41b	-0.7649552
39	0xbf7634b8	-0.9617419
40	0xbf0028e5	-0.500624
41	0xbf358e91	-0.70920664
42	0xbf195cbf	-0.59907144
43	0xbf2d4bd3	-0.67693824
44	0xbee4ffd7	-0.4472644
45	0xbeb96e5d	-0.36217013
46	0xbeedcdce	-0.4644608
47	0xbf72e72e	-0.94884

model/batch_normalization_28/FusedBatchNormV3_mul_0_param f4 [48]
0	0x3fb91398	1.4459105
1	0x3ff14c10	1.8851337
2	0x3fe83248	1.8140345
3	0x4002ed98	2.0457516
4	0x403a249e	2.908485
5	0x3fa89a5e	1.3172109
6	0x3ff771bc	1.9331584
7	0x4013a30b	2.3068264
8	0x4003f7e9	2.0620062
9	0x40247df3	2.5701873
10	0x4000d4f4	2.0129976
11	0x4035ee14	2.8426561
12	0x4010ea3f	2.2642972
13	0x3fcf1b50	1.618021
14	0x40216e0b	2.5223415
15	0x3fab700c	1.3393569
16	0x400643a0	2.0978775
17	0x4026babc	2.6051474
18	0x3fcb000d	1.585939
19	0x3f9ac955	1.2092692
20	0x4001ca68	2.027979
21	0x3fc69bda	1.5516312
22	0x3fd5aaae	1.6692712
23	0x4080fdc1	4.030976
24	0x400728c3	2.111863
25	0x401e43b0	2.4728813
26	0x3fc13047	1.5092858
27	0x3f9e46f4	1.2365403
28	0x3fe6efd3	1.8041939
29	0x402080f5	2.507871
30	0x3fd93d34	1.6971803
31	0x3fe17744	1.7614522
32	0x401a4ee4	2.411065
33	0x3feec5d6	1.8654125
34	0x3f55aaa6	0.83463514
35	0x400cea25	2.201791
36	0x3fafca21	1.373356
37	0x400f133d	2.2355492
38	0x409b1dde	4.847396
39	0x3feba233	1.8408874
40	0x3fb27cdf	1.3944358
41	0x3fc3677f	1.526596
42	0x3f965646	1.1745079
43	0x3fa34e1d	1.2758213
44	0x40488648	3.1331959
45	0x3ff37f45	1.9023215
46	0x3fd30544	1.6485982
47	0x3fd7d502	1.686188

model/batch_normalization_32/FusedBatchNormV3_add_param f4 [48]
0	0xbf853e8f	-1.0409716
1	0xbf7ae0dc	-0.9799936
2	0xbed7e882	-0.42169577
3	0xbf2af864	-0.66785264
4	0xbf5a0927	-0.85170215
5	0xbf5814e8	-0.844069
6	0xbf9d9102	-1.2309878
7	0xbf739811	-0.9515391
8	0xbec04cc6	-0.37558573
9	0xbf81bfb6	-1.013663
10	0xbf72f70d	-0.9490822
11	0xbfb575af	-1.4176539
12	0xbf5dbcd7	-0.8661627
13	0xbf61af56	-0.88158166
14	0xbf6f4623	-0.93466395
15	0xbf64b198	-0.89333487
16	0xbf4395a5	-0.76400214
17	0xbec18743	-0.3779851
18	0xbf78fba0	-0.9725895
19	0xbf7811ed	-0.9690235
20	0xbf4fae56	-0.8112539
21	0xbf7ddddf	-0.99166673
22	0xbf3600c4	-0.7109492
23	0xbf36d708	-0.7142186
24	0xbf0d65dc	-0.5523355
25	0xbf829f73	-1.020491
26	0xbf8acf64	-1.084454
27	0xbfb255e1	-1.3932458
28	0xbf8e0dd8	-1.1097975
29	0xbf9709d5	-1.1799875
30	0xbf395f4c	-0.72411036
31	0xbfd6fe98	-1.6796446
32	0xbf726229	-0.9468103
33	0xbf05be37	-0.5224337
34	0xbf8a287d	-1.0793606
35	0xbfb06201	-1.3779908
36	0xbf91855d	-1.1368824
37	0xbf87669c	-1.0578189
38	0xbf4f24e4	-0.80915666
39	0xbf16a981	-0.5885239
40	0xbf2598c2	-0.64686215
41	0xbf057cc8	-0.52143526
42	0xbfa1eef6	-1.265105
43	0xbf6a2704	-0.91465783
44	0xbf99f170	-1.2026806
45	0xbf81e3df	-1.0147666
46	0xbf591b2e	-0.848071
47	0xbf5e5107	-0.8684239

model/batch_normalization_32/FusedBatchNormV3_mul_0_param f4 [48]
0	0x400c3cb4	2.191205
1	0x404980ab	3.1484783
2	0x40ba3471	5.8189015
3	0x4040c442	3.0119786
4	0x40271be4	2.6110773
5	0x4034a13f	2.8223417
6	0x4079cb2c	3.9030256
7	0x40822e92	4.068185
8	0x40b01dcf	5.5036387
9	0x40155dd0	2.3338509
10	0x3fd04447	1.6270837
11	0x406a4ff8	3.661131
12	0x40a4d77f	5.1513057
13	0x404574d4	3.0852556
14	0x402d5549	2.7083304
15	0x406fb68b	3.7455165
16	0x409f47cf	4.9775157
17	0x4038ab0b	2.8854396
18	0x4086b216	4.209239
19	0x40479443	3.1184242
20	0x4083780c	4.108404
21	0x402ed62f	2.7318227
22	0x406e79e9	3.7261908
23	0x400a07eb	2.1567333
24	0x40814769	4.039967
25	0x409912a1	4.783524
26	0x4094fbc8	4.655735
27	0x4037ba5d	2.8707497
28	0x40e4cb6d	7.1498322
29	0x407660b5	3.8496525
30	0x4095fe5d	4.6873
31	0x4050e6f0	3.2640953
32	0x402ce7ee	2.7016559
33	0x4100e794	8.056538
34	0x403ec241	2.9806063
35	0x40db0616	6.844493
36	0x40af376c	5.4755154
37	0x40525c15	3.2868702
38	0x4002dda6	2.0447783
39	0x42037722	32.86634
40	0x400568f4	2.0845308
41	0x409ccfd5	4.90037
42	0x401602bf	2.3439176
43	0x40712b13	3.768254
44	0x405a7adb	3.4137485
45	0x4033a226	2.8067718
46	0x40794566	3.8948607
47	0x400783b2	2.117413

model/batch_normalization_36/FusedBatchNormV3_add_param f4 [48]
0	0xbf55a320	-0.83452034
1	0x3f297141	0.66188437
2	0xbf5b9c78	-0.8578563
3	0xbe224d14	-0.15849715
4	0xbeb20429	-0.347688
5	0xbf67f61d	-0.90609914
6	0xbe92df4e	-0.28685993
7	0xbe6894e2	-0.22713044
8	0xbd18d4dd	-0.037312377
9	0xbf13d169	-0.5774141
10	0xbec9a7e7	-0.39385912
11	0xbf1b0b94	-0.6056454
12	0xbf6fa0a2	-0.9360448
13	0xbd9d3c56	-0.07677524
14	0x3dc5787a	0.0964212
15	0xbeeee7f1	-0.46661332
16	0xbf0ec476	-0.55768526
17	0xbf4f277b	-0.8091962
18	0xbec8309a	-0.3909958
19	0xbe3d650a	-0.18495575
20	0x3dcacf5e	0.099028334
21	0xbf3861a9	-0.7202402
22	0x3e7658a9	0.24057259
23	0xbf588fd6	-0.84594476
24	0x3e077c34	0.13230973
25	0x3ecbd404	0.39810193
26	0x3d85bef1	0.0653056
27	0x3f031cb5	0.5121568
28	0x3f2d6ac2	0.67741024
29	0xbdf7a4b4	-0.120919615
30	0xbe662d62	-0.2247825
31	0xbf9c2b31	-1.2200681
32	0x3e94da50	0.2907281
33	0xbf353df3	-0.7079765
34	0xbe2c2466	-0.1681076
35	0xbf852f88	-1.040513
36	0xbe0f80ba	-0.14013949
37	0xbf988b6a	-1.1917546
38	0x3db48c76	0.08815853
39	0xbef83408	-0.48477197
40	0x3ecc51d5	0.39906183
41	0x3f37d4d6	0.71809137
42	0xbe8c5119	-0.27405623
43	0x3cd3c7bc	0.025852077
44	0xbd970320	-0.07373643
45	0x3e6d7973	0.2319086
46	0x3e222067	0.15832673
47	0xbf3ea3d5	-0.7446874

model/batch_normalization_36/FusedBatchNormV3_mul_0_param f4 [48]
0	0x40cd33f2	6.412591
1	0x413604e5	11.376195
2	0x40f4593e	7.635894
3	0x40c92f9f	6.287063
4	0x408a4c1a	4.3217897
5	0x407d7232	3.960095
6	0x41022a4e	8.135328
7	0x40f2557a	7.572934
8	0x409c5110	4.8848953
9	0x40fb35ea	7.8503313
10	0x40d0fa25	6.530535
11	0x4102204b	8.132884
12	0x40ac65a7	5.3874087
13	0x40b32a6d	5.598929
14	0x40ad43f0	5.414543
15	0x405b6265	3.4278805
16	0x40a557c4	5.1669636
17	0x4091850f	4.5474925
18	0x40986ef6	4.763545
19	0x4088c0f8	4.2735558
20	0x40b6a507	5.707645
21	0x404c6964	3.1939325
22	0x40b1ac5b	5.5522895
23	0x40b33985	5.6007714
24	0x40c35f5e	6.1053915
25	0x41036edb	8.214564
26	0x40cbab36	6.36465
27	0x411091bc	9.03558
28	0x41108db8	9.034599
29	0x40bafd51	5.8434224
30	0x40ad38de	5.413192
31	0x40b726cc	5.723486
32	0x40bde588	5.934269
33	0x40440438	3.0627575
34	0x40a97001	5.2949224
35	0x40823274	4.068659
36	0x41014ba0	8.080963
37	0x40d336dd	6.600447
38	0x409a31a9	4.818562
39	0x4065d5ba	3.5911698
40	0x41190993	9.564837
41	0x40e9ca8e	7.305976
42	0x40b62d74	5.6930485
43	0x40a25dcd	5.0739503
44	0x4093b698	4.6160393
45	0x410f99c2	8.975039
46	0x40ae5c0e	5.448737
47	0x408ac16d	4.3361115

model/batch_normalization_4/FusedBatchNormV3_add_param f4 [16]
0	0xbf31e049	-0.69482857
1	0xbf1a4bac	-0.60271716
2	0xbf1d9555	-0.6155599
3	0x3d9c9bd4	0.07646909
4	0xbf215f20	-0.63035774
5	0xbe9217d0	-0.28533792
6	0xbf706eab	-0.93918866
7	0xbf6908f1	-0.9102927
8	0xbeece21e	-0.46266264
9	0xbd8979fc	-0.0671272
10	0xbe979226	-0.2960369
11	0xbf02779c	-0.5096376
12	0xbf790df6	-0.9728693
13	0xbf883aac	-1.0642905
14	0xbf29e623	-0.66366786
15	0xbee2c3c6	-0.44289988

model/batch_normalization_4/FusedBatchNormV3_mul_0_param f4 [16]
0	0x3f133e59	0.5751701
1	0x3fab56dc	1.3385882
2	0x3f729726	0.94761884
3	0x3f925071	1.1430799
4	0x3feee3fa	1.8663323
5	0x3f8a950e	1.0826738
6	0x3fa235e4	1.2672696
7	0x3fd68172	1.6758254
8	0x3f7a7927	0.97841114
9	0x3f9f2f43	1.2436298
10	0x3f215486	0.630196
11	0x3fb59589	1.418626
12	0x3fa1a87f	1.2629546
13	0x3f87c35e	1.0606496
14	0x3fa9647d	1.3233792
15	0x3f40b164	0.75270677

model/batch_normalization_40/FusedBatchNormV3_add_param f4 [48]
0	0x3f8d83d6	1.1055858
1	0x3e510166	0.2041069
2	0x3f049ecf	0.5180482
3	0x4053f9ad	3.312114
4	0xbea818ab	-0.3283132
5	0xbe4239df	-0.18967389
6	0xbf89d66e	-1.0768564
7	0x3e4bdf97	0.19909512
8	0x3f29e757	0.6636862
9	0x3f9fdaed	1.2488686
10	0x3fa619a4	1.2976575
11	0x3ffda09e	1.9814641
12	0xbf29b168	-0.66286325
13	0xbe7f54da	-0.24934712
14	0x3f2422ab	0.641154
15	0x3f045bca	0.5170256
16	0x3f8fe107	1.1240548
17	0x3f2cbb5a	0.67473376
18	0x3e7e8c68	0.24858248
19	0xbf0aceb0	-0.5422163
20	0x3f48cccf	0.78437513
21	0xbd1e9944	-0.038720384
22	0x3f7a8b8a	0.9786917
23	0x3f092a38	0.53580046
24	0x3f93d97e	1.1550748
25	0xbf9463c6	-1.1592948
26	0xbf039eac	-0.5141399
27	0x3f80adff	1.0053099
28	0x3f7429ac	0.95376086
29	0x3f90624c	1.1279998
30	0x3fe622d6	1.7979381
31	0xbf1181e7	-0.5683884
32	0x3f973a4b	1.1814665
33	0x3f19ef12	0.6013042
34	0xbd675556	-0.056477867
35	0xbe0af3b5	-0.1356953
36	0xbf0db412	-0.5535289
37	0xbf87b71d	-1.0602757
38	0x3f1c35d8	0.6101966
39	0xbe81e1fb	-0.25367722
40	0x402108aa	2.5161538
41	0x3e4d7dec	0.20067567
42	0x3eddf6f5	0.43352476
43	0x3f2dc3e8	0.67877054
44	0x3fbdb8d1	1.4822026
45	0x3f16bf8a	0.58886015
46	0xbf707786	-0.9393238
47	0xbf037fc3	-0.51366824

model/batch_normalization_40/FusedBatchNormV3_mul_0_param f4 [48]
0	0x4129a4ca	10.602732
1	0x4103baff	8.233153
2	0x41266b38	10.401176
3	0x418fd539	17.979113
4	0x40b4cf30	5.6502914
5	0x40bbf19a	5.8732424
6	0x4116b6a4	9.41959
7	0x40d9cb6f	6.806083
8	0x40dfaa3b	6.98953
9	0x41195721	9.583772
10	0x4133c3e8	11.235329
11	0x4172d44d	15.176831
12	0x40b53320	5.662491
13	0x408a1d28	4.316059
14	0x412dda80	10.865845
15	0x40da7503	6.8267837
16	0x415077da	13.029261
17	0x40f94823	7.7900558
18	0x410de569	8.868508
19	0x40705323	3.7550743
20	0x4116cad8	9.424522
21	0x40c9def7	6.3084674
22	0x40f6ee4b	7.7165885
23	0x4159a89b	13.603663
24	0x412810a3	10.504062
25	0x414445f1	12.267076
26	0x409f0822	4.969743
27	0x4101d230	8.113815
28	0x4104cec1	8.300477
29	0x413359b1	11.209397
30	0x4179ced8	15.612999
31	0x408de191	4.433785
32	0x412e7d0c	10.905529
33	0x41166bfb	9.401362
34	0x40bffe7e	5.999816
35	0x40bfd08c	5.9942074
36	0x40cf5fd1	6.4804463
37	0x40c42c2c	6.130392
38	0x4179f9b6	15.623465
39	0x40b9a0ad	5.8008637
40	0x416797b4	14.474537
41	0x40e36dcd	7.1071534
42	0x40ff3b77	7.976009
43	0x4102707f	8.152465
44	0x411a2d79	9.636102
45	0x4106b8cc	8.420116
46	0x410d8311	8.844499
47	0x40914175	4.5392404

model/batch_normalization_44/FusedBatchNormV3_add_param f4 [48]
0	0x3ff49dd0	1.911066
1	0x3e43c8d0	0.19119573
2	0x4002b7a5	2.0424588
3	0x3f0743a4	0.52837586
4	0xbf56a9dc	-0.83852935
5	0x3fb1fbcf	1.3904971
6	0xbdda2e68	-0.106533825
7	0x4017c690	2.3714943
8	0x401bae25	2.432504
9	0xbf256c13	-0.64618033
10	0x3de0267e	0.10944842
11	0xbfe85018	-1.8149443
12	0xbf60bf45	-0.87791854
13	0x3f890e9c	1.0707583
14	0x3df734c4	0.12070611
15	0x4086e049	4.2148786
16	0x401b6e52	2.4286084
17	0x3e93d1e4	0.2887107
18	0x3e5b670c	0.21426028
19	0xbf727250	-0.9470568
20	0x3dd40b84	0.10353759
21	0x3f90b478	1.1305075
22	0xbfa9afd3	-1.3256782
23	0x3fb280ef	1.3945597
24	0xbf4384f3	-0.7637474
25	0xbed05f4c	-0.40697706
26	0xbdb03b6a	-0.08605082
27	0x3e1d5311	0.15363719
28	0x3f6ef534	0.933429
29	0xbf4d284c	-0.80139613
30	0x402e9360	2.727745
31	0x3f00ebbc	0.503597
32	0x3fa0d6fa	1.2565606
33	0xbfc58786	-1.5431983
34	0xbf2021c0	-0.625515
35	0x3ebf7cc8	0.37399888
36	0x3faa570e	1.3307817
37	0x3f08a876	0.5338205
38	0x404102a2	3.0157857
39	0xbec7ffd9	-0.39062384
40	0xbe059b5d	-0.13047548
41	0xbf1f7489	-0.62287194
42	0x3f482f09	0.7819677
43	0xbf53880e	-0.8262948
44	0x4084f71e	4.1551657
45	0x3f3f18d1	0.7464724
46	0xbf100ea9	-0.5627237
47	0x4023dcd9	2.5603545

model/batch_normalization_44/FusedBatchNormV3_mul_0_param f4 [48]
0	0x417b9860	15.724701
1	0x414cfc3a	12.811579
2	0x41a83fcf	21.031157
3	0x41766b6a	15.401224
4	0x4108a804	8.541019
5	0x414ff81d	12.998075
6	0x40e2f80a	7.092778
7	0x41876a34	16.926857
8	0x41709fcf	15.039016
9	0x41113fd8	9.078087
10	0x413f6b20	11.963654
11	0x40d1b148	6.552891
12	0x410e958a	8.911509
13	0x411b32e0	9.699921
14	0x415cc13d	13.797177
15	0x41a80903	21.0044
16	0x419d1e80	19.639893
17	0x4103ac8c	8.229626
18	0x41253cbf	10.327331
19	0x40fc2f61	7.8807836
20	0x412bdc0f	10.741225
21	0x414afb4d	12.686353
22	0x40e79bfa	7.23779
23	0x4126ad3b	10.417293
24	0x40fca7fd	7.8955064
25	0x4131c34e	11.110182
26	0x41316cb0	11.089035
27	0x40f6ed34	7.7164555
28	0x4119cb03	9.612063
29	0x40ebcfe7	7.3691287
30	0x41cd4cf4	25.662575
31	0x410eac49	8.917062
32	0x4138567c	11.521114
33	0x40ec0b1b	7.3763556
34	0x40d259e1	6.5734715
35	0x41220f4b	10.128734
36	0x413c2747	11.759589
37	0x4125fba4	10.373936
38	0x416bfa59	14.74862
39	0x40c8418a	6.2580004
40	0x40bd3cf0	5.9136887
41	0x40dc9e59	6.8943295
42	0x4133a637	11.22808
43	0x40c8eaf8	6.2786827
44	0x41a4bc86	20.592052
45	0x414c4f9d	12.769437
46	0x40cbc95b	6.3683295
47	0x41877a37	16.934675

model/batch_normalization_45/FusedBatchNormV3_add_param f4 [64]
0	0xbe6d1c4c	-0.23155326
1	0xbf5b1800	-0.85583496
2	0xbe33631e	-0.17518279
3	0xbe255a6c	-0.16147774
4	0xbf50545c	-0.8137872
5	0xbec8cc88	-0.39218545
6	0x3e0f8f88	0.14019597
7	0xbe66cb88	-0.22538579
8	0xbe74488e	-0.23855802
9	0xbcf1b660	-0.029505908
10	0x3e7f5f99	0.24938811
11	0xbe98e314	-0.29860747
12	0xbf0ea614	-0.55722165
13	0x3d2b2150	0.041779816
14	0xbf0df128	-0.554461
15	0xbed1928e	-0.40932125
16	0xbf2fa7fa	-0.68615687
17	0xbf097546	-0.5369457
18	0xbf32df1c	-0.6987169
19	0xbf40d200	-0.75320435
20	0xbdbeb4d9	-0.09311838
21	0x3deaa0b8	0.11456436
22	0xbf76376b	-0.9617831
23	0xbf399a29	-0.72500855
24	0xbf66ce6c	-0.90158725
25	0xbdd8bcd8	-0.10582894
26	0x3f0850fd	0.5324858
27	0xbf0af51c	-0.5428026
28	0xbf0cced6	-0.55003107
29	0xbf19ceac	-0.6008098
30	0xbf1b9dba	-0.60787547
31	0x3ed725f0	0.42021132
32	0xbf117696	-0.5682157
33	0xbe9882ea	-0.2978738
34	0xbf1a4eca	-0.6027647
35	0xbf2fae48	-0.6862531
36	0x3ef60540	0.4805088
37	0xbeaf03b5	-0.34182516
38	0x3e491632	0.19637373
39	0xbf606a0c	-0.87661815
40	0xbef248c7	-0.4732115
41	0x3e41647e	0.18885991
42	0x3e057538	0.13032997
43	0x3d860818	0.065445125
44	0xbe2b2844	-0.16714579
45	0x3e6d8b48	0.23197663
46	0x3cf99710	0.03046754
47	0xbf1754f0	-0.5911398
48	0x3ec23176	0.3792836
49	0xbf2b8707	-0.6700291
50	0xbf397308	-0.7244115
51	0xbe61ca04	-0.22049719
52	0x3ec8bdc9	0.39207295
53	0xbf235f78	-0.6381755
54	0x3ec5fea9	0.38670853
55	0xbf81b80a	-1.0134289
56	0xbe81081c	-0.252015
57	0xbf0b0faa	-0.54320776
58	0xbf3b7cbe	-0.73237216
59	0xbebb5a2a	-0.36592227
60	0xbf1e11ca	-0.61745894
61	0xbe9f417d	-0.3110465
62	0xbe4631b8	-0.19354904
63	0xbe679f7e	-0.22619435

model/batch_normalization_45/FusedBatchNormV3_mul_0_param f4 [64]
0	0x3c633859	0.013868415
1	0x3cc39f5a	0.023879696
2	0x3ca1394a	0.019680638
3	0x3c83d64f	0.016093401
4	0x3c9aa0bd	0.018875474
5	0x3c797fd1	0.015228228
6	0x3cbda60a	0.023150463
7	0x3c94d0a6	0.018165898
8	0x3c9cc182	0.01913524
9	0x3c952f2b	0.018210968
10	0x3c851db8	0.016249523
11	0x3cb953d9	0.02262299
12	0x3caf5b82	0.021405939
13	0x3cb7d483	0.0224402
14	0x3cc223d4	0.023698725
15	0x3c84eac9	0.016225236
16	0x3ca0a431	0.019609543
17	0x3c9afec5	0.018920312
18	0x3cc103fb	0.023561468
19	0x3cca26d0	0.02467671
20	0x3c71185f	0.014715283
21	0x3c944281	0.018098118
22	0x3c9eb721	0.019374432
23	0x3cc4d3ca	0.02402677
24	0x3cb63786	0.022243273
25	0x3cc66100	0.024216175
26	0x3c8b0cb1	0.016973825
27	0x3c9807b3	0.018558359
28	0x3cab6e8b	0.020926734
29	0x3cacce14	0.02109436
30	0x3cb1fd7f	0.021727322
31	0x3cd577ab	0.026058039
32	0x3c9dc9e4	0.019261308
33	0x3ca1fe60	0.019774616
34	0x3ca07c1f	0.019590436
35	0x3c92c70b	0.017917177
36	0x3ca52e34	0.020163633
37	0x3ca16fd2	0.01970664
38	0x3ce37da1	0.027769865
39	0x3cad3847	0.021145
40	0x3c977e80	0.018492937
41	0x3c82a800	0.01594925
42	0x3cb89e7a	0.022536505
43	0x3c9837a1	0.018581213
44	0x3c9aa653	0.018878138
45	0x3ca192d3	0.019723332
46	0x3cae39d7	0.021267815
47	0x3cba5b82	0.022748712
48	0x3ca03234	0.019555189
49	0x3c6add8d	0.014335048
50	0x3cd6c3e0	0.026216447
51	0x3cb1801b	0.02166753
52	0x3ca38863	0.019962495
53	0x3c9e0621	0.019290032
54	0x3ca28b53	0.019841826
55	0x3ce30f03	0.02771712
56	0x3cb816f7	0.022471888
57	0x3ca803ac	0.020509563
58	0x3cb4213c	0.021988504
59	0x3cafd673	0.021464562
60	0x3cb2ed6a	0.021841723
61	0x3cad27bc	0.02113711
62	0x3ca838bd	0.020534867
63	0x3c93bbd7	0.018033905

model/batch_normalization_46/FusedBatchNormV3_add_param f4 [48]
0	0x3f15484e	0.58313453
1	0xbf089fe9	-0.53369004
2	0x3e61dd1d	0.22057004
3	0xbf33d160	-0.70241356
4	0x3edf8eca	0.43663627
5	0x3f3953da	0.7239357
6	0xbead37ca	-0.33831626
7	0xbe036e58	-0.12835062
8	0xbf296374	-0.6616738
9	0x3e977363	0.2958022
10	0xbf03d3c0	-0.5149498
11	0xbf2692a6	-0.6506752
12	0x3ef3d21a	0.47621232
13	0xbd6a9980	-0.057275295
14	0xbf6cfbe0	-0.9257183
15	0xbf3af2c0	-0.7302666
16	0x3f791893	0.9730312
17	0xbdc58c08	-0.096458495
18	0xbe566c38	-0.2093972
19	0xbf95806d	-1.1679817
20	0x3f6be47c	0.92145514
21	0xbccdd480	-0.025125742
22	0x3f4174ed	0.7556904
23	0xbf29df35	-0.6635621
24	0x3dd4fa18	0.10399264
25	0x3e80fa3a	0.25190908
26	0xbf4cc995	-0.7999509
27	0xbee7209e	-0.45142072
28	0xbf8598a4	-1.0437207
29	0xbee75f17	-0.45189735
30	0xbf063b5c	-0.52434325
31	0xbea94af4	-0.33064997
32	0x3f4147c2	0.7550012
33	0x3ed335e4	0.41252053
34	0x3f06f244	0.5271342
35	0xbeeaa120	-0.45826054
36	0xbedcb369	-0.4310563
37	0xbf597fec	-0.8496082
38	0x3f634bab	0.88787335
39	0xbd5a7bd0	-0.053340733
40	0x3f324bf4	0.69647145
41	0xbd373080	-0.044723988
42	0xbf38af68	-0.7214265
43	0xbeee9c96	-0.4660384
44	0xbece165c	-0.40251434
45	0xbf13ea51	-0.57779413
46	0x3f2b835d	0.6699732
47	0xbee25c59	-0.4421108

model/batch_normalization_46/FusedBatchNormV3_mul_0_param f4 [48]
0	0x3ed71f18	0.4201591
1	0x3eef74b7	0.46768734
2	0x3ef6ff42	0.4824162
3	0x3f20be3c	0.62790275
4	0x3ebdb651	0.3705316
5	0x3ec1d20d	0.3785557
6	0x3f0846b6	0.53232896
7	0x3efdb17e	0.49549478
8	0x3f1f3254	0.6218617
9	0x3ea21983	0.3166009
10	0x3f188e56	0.5959219
11	0x3f01fe50	0.50778675
12	0x3f00618f	0.5014886
13	0x3f1b8c03	0.60760516
14	0x3f191690	0.5980005
15	0x3f135ac0	0.5756035
16	0x3efe6d5e	0.49692816
17	0x3f226ee4	0.63450456
18	0x3f218ca6	0.6310524
19	0x3efd0cdc	0.49423873
20	0x3f217f35	0.6308473
21	0x3f0b6422	0.54449666
22	0x3f05811c	0.5215013
23	0x3ef9ae32	0.48765713
24	0x3eee1e7b	0.4650763
25	0x3f0c3771	0.54772097
26	0x3f03fcb8	0.51557493
27	0x3f315517	0.6927046
28	0x3f164a8a	0.5870749
29	0x3ed4ffdb	0.41601452
30	0x3eed78e4	0.46381295
31	0x3f0dc5cf	0.55379957
32	0x3ebede21	0.37278846
33	0x3f22d29b	0.6360261
34	0x3f12b073	0.5730049
35	0x3f319168	0.693625
36	0x3ee9ec35	0.45688024
37	0x3f23ab92	0.6393367
38	0x3f21e2b3	0.6323654
39	0x3ef39e1f	0.47581574
40	0x3f079855	0.52966815
41	0x3ef00496	0.468785
42	0x3f0bfbd5	0.5468114
43	0x3f18b7e5	0.596556
44	0x3f29953c	0.6624334
45	0x3f354527	0.70808643
46	0x3f2a33d8	0.6648536
47	0x3f2b3ea2	0.66892445

model/batch_normalization_47/FusedBatchNormV3_add_param f4 [32]
0	0xbd9e9fc0	-0.07745314
1	0xbe5aa070	-0.21350265
2	0x3e65426a	0.22388616
3	0xbf0da392	-0.55327713
4	0xbe57be92	-0.2106879
5	0xbff1d063	-1.889172
6	0xbf0b5246	-0.54422414
7	0xbf285c2c	-0.65765643
8	0x3eb0bc17	0.345185
9	0xbfa7763d	-1.3082958
10	0xbf8a6a78	-1.0813742
11	0xbff81383	-1.9380955
12	0x3d569b85	0.05239441
13	0xbdaaea10	-0.08345425
14	0x3e889815	0.2667853
15	0xbf287c32	-0.65814507
16	0xbf1ed914	-0.62049985
17	0xbe317280	-0.17328835
18	0x3e6f99df	0.23398541
19	0xbf0a9c82	-0.5414506
20	0xbf6b7f0a	-0.9199072
21	0xbf66a1de	-0.9009074
22	0xbf772474	-0.9654
23	0xbccc89c0	-0.024968028
24	0xbed62f13	-0.4183279
25	0xbf5f06d2	-0.8711978
26	0x3e1d38d1	0.15353705
27	0x3eea1a23	0.45723066
28	0xbf2ae154	-0.66750073
29	0xbea9d3ed	-0.331695
30	0xc00b7bd6	-2.1794333
31	0xbf89e29d	-1.0772282

model/batch_normalization_47/FusedBatchNormV3_mul_0_param f4 [32]
0	0x3ed02e51	0.40660337
1	0x3ed787f8	0.42095923
2	0x3e83fc2a	0.25778323
3	0x3efb915c	0.49134338
4	0x3efc0a42	0.49226576
5	0x3f190443	0.5977213
6	0x3edade34	0.42747653
7	0x3f34ebb2	0.7067214
8	0x3e93f1d8	0.2889545
9	0x3ec068c6	0.37579936
10	0x3edeea0e	0.43537945
11	0x3f0d7bc3	0.5526697
12	0x3e92a029	0.28637818
13	0x3f071fb4	0.5278275
14	0x3eb14006	0.34619159
15	0x3ee962ab	0.4558309
16	0x3f0978fd	0.5370024
17	0x3ea881cf	0.32911536
18	0x3eadea4d	0.3396782
19	0x3ee83271	0.45350984
20	0x3ec567e7	0.38555834
21	0x3ec1ad60	0.37827587
22	0x3f3362dc	0.7007272
23	0x3eed580b	0.46356234
24	0x3f10c890	0.56556034
25	0x3f2f9e46	0.6860088
26	0x3f013d1f	0.5048389
27	0x3e97341e	0.2953195
28	0x3efc2a91	0.49251226
29	0x3ebd6e57	0.36998245
30	0x3f242f5a	0.6413475
31	0x3eb5808a	0.3544963

model/batch_normalization_48/FusedBatchNormV3_add_param f4 [16]
0	0xbeec416f	-0.46143672
1	0xbbbf1400	-0.0058312416
2	0xc019dfc0	-2.4042816
3	0x3f70ac72	0.9401313
4	0xbe9f2eef	-0.31090495
5	0xbfc3ae52	-1.5287573
6	0xbf19f4b1	-0.60138994
7	0x3e601a88	0.21885121
8	0xbfeb8e9a	-1.8402894
9	0xbf5dc9be	-0.8663596
10	0xbf9fe874	-1.2492814
11	0xc0135687	-2.3021562
12	0xbfe66e0e	-1.8002336
13	0xbf7c5a05	-0.9857486
14	0xbf54c0bc	-0.8310659
15	0x3e22a466	0.15883026

model/batch_normalization_48/FusedBatchNormV3_mul_0_param f4 [16]
0	0x3f527fb4	0.8222611
1	0x3ee9d07e	0.4566688
2	0x3f53dd82	0.8275987
3	0x3ee1feb5	0.4413964
4	0x3ee54baf	0.44784304
5	0x3f45fdd6	0.7734045
6	0x3f226b6d	0.6344517
7	0x3f17d5a1	0.59310347
8	0x3faf08d6	1.3674572
9	0x3f3132a4	0.69217896
10	0x3f521a5e	0.82071483
11	0x3f658e61	0.8967038
12	0x3fa47585	1.2848364
13	0x3f11ec95	0.5700162
14	0x3f491b80	0.78557587
15	0x3f122b18	0.57097006

model/batch_normalization_49/FusedBatchNormV3_add_param f4 [8]
0	0x3f368ce4	0.7130873
1	0xc0142d26	-2.3152556
2	0x3fabf825	1.3435103
3	0xc00f98d7	-2.2437036
4	0xbf51b5c8	-0.81918
5	0xc05ca5c9	-3.4476187
6	0xc00f8925	-2.2427456
7	0x3f561e1e	0.83639705

model/batch_normalization_49/FusedBatchNormV3_mul_0_param f4 [8]
0	0x3fff3f88	1.9941263
1	0x40122de2	2.2840505
2	0x3f9867c4	1.1906667
3	0x40380bc4	2.875718
4	0x40184fe8	2.379877
5	0x40771fe5	3.8613217
6	0x402edf73	2.7323883
7	0x3f5b07fb	0.8555905

model/batch_normalization_8/FusedBatchNormV3_add_param f4 [16]
0	0xbf24adde	-0.643278
1	0xbf112834	-0.5670197
2	0xbf86144c	-1.0474944
3	0xbf180efc	-0.59397864
4	0xbebc8e24	-0.36827195
5	0xbefa17d7	-0.48846313
6	0xbf373d96	-0.7157835
7	0xbf90e800	-1.1320801
8	0xbf6c5690	-0.92319584
9	0xbfdde8e2	-1.7336695
10	0xbe0edf2c	-0.13952321
11	0xbf1d446d	-0.61432534
12	0xbf72d1be	-0.9485129
13	0xbe99c1fa	-0.30030805
14	0xbf5772b3	-0.8415939
15	0xbf09add0	-0.5378084

model/batch_normalization_8/FusedBatchNormV3_mul_0_param f4 [16]
0	0x3f9a7060	1.2065544
1	0x3fed96e8	1.8561678
2	0x3fbc1cfb	1.4696344
3	0x3ffc62f8	1.9717703
4	0x3f8f98f8	1.1218557
5	0x3f9c517d	1.2212368
6	0x3f9e5b6f	1.2371653
7	0x3f89ff00	1.0780945
8	0x3f97f1ce	1.1870668
9	0x40351db5	2.8299382
10	0x3f9fea8f	1.2493457
11	0x3f974056	1.1816509
12	0x3f8fb421	1.1226846
13	0x3f933403	1.1500248
14	0x3faeb957	1.3650311
15	0x3f737b4d	0.9511002

model/conv2d/Conv2D/ReadVariableOp f4 [8, 3, 3, 3]
0	0x3eb1673b	0.3464907
1	0x3ef0f9cb	0.47065577
2	0x3e816cd0	0.2527833
3	0xbfbc0cba	-1.4691384
4	0xbee3fd4a	-0.44529182
5	0xbf93aa19	-1.1536285
6	0x3f4bf726	0.79673994
7	0xbdbc377a	-0.09190269
8	0xbeb8eac7	-0.3611662
9	0x3f496df5	0.78683406
10	0x3f4f4ec0	0.8097954
11	0xbd005903	-0.03133489
12	0xbe89fc2a	-0.26950198
13	0x3f02425f	0.50882524
14	0x3ec2dd79	0.38059595
15	0x3e0fe349	0.14051546
16	0x3e30986b	0.17245643
17	0xbeffa971	-0.4993396
18	0x3da0f3b3	0.07858982
19	0x3dca1ac6	0.09868388
20	0xbe9a50ac	-0.30139673
21	0x3ef9bb05	0.48775497
22	0x3eaa81b5	0.33302084
23	0x3c4e7802	0.012601854
24	0xbe998b6e	-0.2998919
25	0xbe38082c	-0.17971867
26	0xbdec2dfb	-0.115322076
27	0x3e7bc789	0.24587835
28	0x3e05321c	0.13007396
29	0x3dfa6985	0.122271575
30	0x3cdb8b90	0.026799947
31	0xbd10dbc7	-0.035365846
32	0x3dd53325	0.10410146
33	0xbda5c7db	-0.0809476
34	0x3d2f48a7	0.042793896
35	0xbcbe8416	-0.023256343
36	0x3e6e3de4	0.23265797
37	0x3d9414fa	0.072305635
38	0x3e1e0602	0.1543198
39	0x3dcd6127	0.10028296
40	0xbe4f38ca	-0.20236507
41	0x3b9770e0	0.00462161
42	0x3d02049d	0.03174268
43	0xbdc03ef3	-0.093870066
44	0xbc7326cc	-0.014840793
45	0x3d229786	0.039695285
46	0x3dc94779	0.098280855
47	0x3e2272f7	0.15864168
48	0x3d38eb80	0.045146465
49	0xbc99d41c	-0.0187779
50	0xbe0f0f88	-0.13970768
51	0x3db29c0b	0.08721169
52	0x3b1eb077	0.0024214068
53	0x3e024af3	0.12723903
54	0xbeccf29a	-0.4002884
55	0xbef753b3	-0.48306045
56	0x3e8b6d27	0.27231714
57	0xbf1b3b3d	-0.60637265
58	0xbecb5966	-0.39716643
59	0xbf0eec12	-0.55828965
60	0x3f0c114c	0.5471389
61	0x3f00edea	0.5036303
62	0x3e46d981	0.19418909
63	0xbf1e106f	-0.61743826
64	0xbe39c8a3	-0.18142943
65	0xbebc2b64	-0.36751854
66	0xbe72ee3a	-0.23723689
67	0xbf70d70c	-0.94078135
68	0xbdd533ad	-0.10410247
69	0x3d97e7c3	0.07417252
70	0x3ebf39c7	0.37348768
71	0x3e983865	0.29730526
72	0x3f0b9891	0.5452967
73	0xbe737953	-0.2377675
74	0x3e4a9089	0.19781698
75	0x3dd1ee55	0.10250536
76	0xbe54c7ca	-0.20779338
77	0x3ec870b8	0.39148498
78	0x3f0c3439	0.54767185
79	0x3d13e509	0.036107097
80	0xbf24bef2	-0.6435386
81	0x3f153534	0.58284307
82	0xbe819bac	-0.2531408
83	0x3dde5768	0.10856515
84	0x3dbe59b9	0.09294457
85	0xbe8d16c1	-0.27556422
86	0x3e281c54	0.16417056
87	0xbcfda5ec	-0.030962907
88	0x3d47265f	0.048620578
89	0xbe89c08f	-0.26904723
90	0x3ecef97e	0.40424722
91	0xbda6c845	-0.08143667
92	0xbd8c1207	-0.06839376
93	0x3f10f954	0.56630445
94	0xbeb96213	-0.36207637
95	0xbcdff798	-0.027339742
96	0x3d1c2d3a	0.03812907
97	0xbd9ed9df	-0.07756399
98	0x3d993659	0.07481069
99	0x3e59335d	0.21211
100	0xbeb86075	-0.3601109
101	0x3dac86e6	0.08424167
102	0x3eb445dd	0.3520955
103	0xbe9ac49e	-0.30228132
104	0x3ae0bffe	0.0017147062
105	0xbe244c58	-0.16044748
106	0xbe70d98e	-0.2352049
107	0xbd321af5	-0.04348274
108	0x3dfe3ed5	0.12414328
109	0x3d4ebf05	0.05047514
110	0x3d2bf496	0.041981302
111	0x3e10cf4d	0.14141579
112	0x3e71ddd3	0.23619775
113	0x3dfc0608	0.12305838
114	0xbe0b6970	-0.1361444
115	0xbde52a68	-0.11189729
116	0xbe0b5f72	-0.13610628
117	0x3eb5355d	0.35392275
118	0x3f071212	0.5276195
119	0xbd14b1e8	-0.036302477
120	0x3d777570	0.06041473
121	0x3f02f80a	0.5115973
122	0x3f024983	0.5089342
123	0xbe66284e	-0.22476313
124	0xbe963894	-0.2934004
125	0xbe9a55fa	-0.3014372
126	0xbe0e6d57	-0.13908897
127	0x3d417656	0.047231995
128	0x3d5f4de4	0.05451764
129	0xbd840770	-0.06446731
130	0x3dbd7dcf	0.09252512
131	0x3e162662	0.1466308
132	0xbe32375d	-0.17403932
133	0xbe8afd9f	-0.27146623
134	0x3dcf247c	0.10114381
135	0x3e10de9d	0.1414742
136	0x3e5d5084	0.21612746
137	0xbd40376e	-0.046927862
138	0x3ed2c889	0.4116862
139	0x3ef2090e	0.47272533
140	0x3dfb8e88	0.12283045
141	0xbeab42e4	-0.3344947
142	0xbe1e7faa	-0.15478387
143	0xbda53285	-0.080662765
144	0x3e8121dd	0.25221148
145	0x3ee3602a	0.44409305
146	0x3cc7d12c	0.024391733
147	0x3e503a64	0.20334774
148	0x3f10c5d4	0.5655186
149	0x3ed56462	0.41678149
150	0xbc2a7275	-0.010403265
151	0xbe99f8af	-0.30072543
152	0xbe84f47c	-0.25967777
153	0xbeb84d0f	-0.3599629
154	0x3db3a4ed	0.087716915
155	0xbda3d69e	-0.07999919
156	0x3a5d859d	0.0008450391
157	0xbd3e6c7b	-0.046490174
158	0x3d1380bf	0.036011454
159	0xbe93d1b7	-0.28870937
160	0xbe1bd0fb	-0.15216438
161	0xbd342f0c	-0.04399018
162	0x3d970d05	0.0737553
163	0xbd4dfe2c	-0.050291225
164	0xbe83526d	-0.25648823
165	0x3e8fce33	0.28087005
166	0x3d1aa4dd	0.037754882
167	0x3d882b25	0.06648854
168	0x3e379cce	0.1793091
169	0x3e3d1619	0.18465461
170	0xbdc1cf42	-0.094633594
171	0xbdde4cd8	-0.108545005
172	0x3ebce7b7	0.36895534
173	0x3da1a4c0	0.07892752
174	0xbc466401	-0.012108804
175	0x3edb2a8f	0.42805907
176	0xbdf66456	-0.12030856
177	0xbc0c3e46	-0.008559769
178	0xbaac8a68	-0.0013163807
179	0xbda7fdc6	-0.082027
180	0xbccff2a9	-0.025384264
181	0x3e004e1f	0.12529801
182	0xbe5f02d7	-0.21778427
183	0x3d14d3aa	0.03633467
184	0x3e4218da	0.18954793
185	0x3dec6345	0.11542372
186	0x3e79e15b	0.24402373
187	0xbe0f83d8	-0.14015138
188	0xbe635771	-0.22201325
189	0xbdbca7d1	-0.09211696
190	0xbd912f42	-0.07089092
191	0xbded06d4	-0.11573568
192	0x3ea304f1	0.31839707
193	0x3e84eda5	0.25962558
194	0x3a61fa12	0.0008620332
195	0x3e63ddaa	0.22252527
196	0xbca565af	-0.020190088
197	0x3e59ad9a	0.2125763
198	0xbd419b14	-0.047267035
199	0x3d3f00e5	0.046631712
200	0x3d2a0ab0	0.0415141
201	0x3d855306	0.06509976
202	0x3b267621	0.00254
203	0xbdc038a0	-0.093858
204	0x3d87dc20	0.066337824
205	0x3e9970e1	0.29968932
206	0xbe52561b	-0.20540659
207	0xbd823eab	-0.06359609
208	0x3e51fb7d	0.20506091
209	0xbe14cbd1	-0.14530875
210	0x3e7d1969	0.24716724
211	0x3db8c067	0.09021073
212	0xbdb2e8e6	-0.08735828
213	0x3d03099f	0.031991597
214	0x3e147d88	0.14501011
215	0xbc7a165f	-0.015264123

model/conv2d/Conv2D_bias f4 [8]
0	0x3eea1cdb	0.4572514
1	0x3e4097e3	0.1880794
2	0xbf0f9382	-0.56084454
3	0x3f13ffdd	0.5781229
4	0x3edf0ede	0.4356603
5	0x3eb3910d	0.35071602
6	0x3e08cfa6	0.13360462
7	0x3e405625	0.18782862

model/conv2d_1/Conv2D/ReadVariableOp f4 [16, 1, 1, 8]
0	0x3e6bb316	0.23017535
1	0xbdb0bae9	-0.086294
2	0x3e8e562c	0.2780012
3	0xbe839c28	-0.25705075
4	0xbde540bb	-0.11193987
5	0xbe547521	-0.20747806
6	0x3def2c8a	0.11678417
7	0x3d1193de	0.035541408
8	0x3d29de39	0.041471694
9	0x3ccf5d4d	0.025313044
10	0xbe85db10	-0.26143694
11	0x3cb868a7	0.02251084
12	0x3e157542	0.14595512
13	0x3e0bfc43	0.13670449
14	0x3c887438	0.01665698
15	0x3e6cc20a	0.23120895
16	0xbc7a8149	-0.015289613
17	0xbec2b7f3	-0.38030967
18	0x3fcc6602	1.596863
19	0xbe4bb5e8	-0.1989361
20	0x3ec7d000	0.3902588
21	0x3e2d868f	0.16945861
22	0xbef028f4	-0.46906245
23	0xbd9059f9	-0.07048411
24	0xbf0963c6	-0.5366787
25	0x3f939aa8	1.1531572
26	0x3f87de2b	1.0614675
27	0xbe88ae59	-0.26695517
28	0xbf40bbac	-0.75286365
29	0xbfe69d41	-1.801674
30	0xbfb34375	-1.4004961
31	0x4005f878	2.0932903
32	0x3efda392	0.49538857
33	0xbd1d2a59	-0.038370464
34	0xbe43ad0c	-0.19108981
35	0x3e91f4d7	0.2850711
36	0x3e07ec43	0.1327372
37	0x3eab9339	0.3351076
38	0x3ca3c0e2	0.019989435
39	0xbe707f9e	-0.23486182
40	0x3f30daac	0.69083667
41	0x3df1f267	0.11813813
42	0xbe401c66	-0.18760833
43	0xbe010558	-0.12599695
44	0x3e5f4ee6	0.21807441
45	0x3db6d6ed	0.089277126
46	0xbe2b3b64	-0.16721874
47	0xbeb096b2	-0.3448997
48	0x401489c5	2.3209088
49	0x3fa19ae6	1.2625396
50	0x3f1b33a8	0.60625696
51	0xbf1dc623	-0.6163046
52	0x3eacc711	0.33745626
53	0xbf8dddeb	-1.1083349
54	0xbe2ace3f	-0.16680239
55	0xbf6de87f	-0.92932886
56	0xbe80bd44	-0.25144398
57	0x3e34bd3f	0.17650317
58	0x3ec2022e	0.37892288
59	0xbf2fde16	-0.6869825
60	0x3ebe9ea2	0.37230402
61	0x3ed9a558	0.4250896
62	0x3e1e6933	0.15469818
63	0xbeb230dc	-0.34802902
64	0x3e294536	0.16530308
65	0xbda25999	-0.07927246
66	0xbe71c835	-0.23611529
67	0xbdbb6725	-0.09150533
68	0x3e88863b	0.2666491
69	0x3e15f252	0.14643219
70	0x3e22f7f8	0.15914905
71	0x3e3306e0	0.17483091
72	0xbe83dedd	-0.2575597
73	0x3f0d942e	0.5530423
74	0xbf00c153	-0.5029499
75	0xc0004251	-2.0040476
76	0x3efb433d	0.49074736
77	0xbea83c36	-0.32858437
78	0x3f2981a9	0.6621347
79	0xbf5b4d80	-0.8566513
80	0xbf56ec16	-0.8395399
81	0xbe475596	-0.19466242
82	0xbf3f03cf	-0.74615186
83	0xbf23e0e2	-0.6401502
84	0x3f1faa3f	0.6236915
85	0x3c7406fb	0.014894242
86	0xbefce5b2	-0.49393994
87	0x3f186457	0.59528106
88	0x3f3110c1	0.6916619
89	0x3e35ccdc	0.17753929
90	0x3d851563	0.0649822
91	0x3e98c7d8	0.2983997
92	0xbf0578ab	-0.5213725
93	0xbe119d1f	-0.14220093
94	0x3e37a6a3	0.1793466
95	0x3ac37a20	0.0014913715
96	0x3cebaecd	0.028769875
97	0xbe8747e0	-0.26422024
98	0x3fc8ffd6	1.5703075
99	0xbf295c48	-0.66156435
100	0x3efdfb7f	0.4960594
101	0xbebdec1c	-0.370942
102	0xbe4cbf51	-0.19994856
103	0x3f1750ab	0.59107465
104	0x3f1f2b50	0.62175465
105	0x3eb0bb1b	0.3451775
106	0x3fa97cf7	1.3241261
107	0x3f43eb45	0.7653087
108	0x3e8e2b65	0.27767482
109	0xbf9a29d1	-1.2044011
110	0x3c450ea6	0.012027418
111	0xbe8d905b	-0.27649197
112	0xbf6f4938	-0.934711
113	0x3fb920d3	1.4463142
114	0x3e06fae8	0.1318165
115	0x402ba80d	2.682132
116	0x3dfc222a	0.12311204
117	0xbf1d67bd	-0.6148642
118	0xbf8edc38	-1.1160955
119	0x3eff9693	0.49919567
120	0xbf2f9345	-0.6858409
121	0x3edc5c02	0.43038946
122	0x3eb820f3	0.35962638
123	0xbeccc6ff	-0.39995572
124	0xbeb3c21d	-0.35109034
125	0xbe662e2d	-0.22478552
126	0x3ee69789	0.45037487
127	0xbef2acde	-0.47397512

model/conv2d_1/Conv2D_bias f4 [16]
0	0x3f715fe2	0.9428693
1	0x3eede13a	0.46460897
2	0xbee19e6a	-0.44066173
3	0x3f1334a2	0.57502186
4	0xbe07b53a	-0.13252726
5	0x3ea094e2	0.3136359
6	0xbf9d84cc	-1.2306151
7	0xbc5b141c	-0.013371494
8	0x3eaff466	0.3436615
9	0x3fe96dec	1.823667
10	0x3fcc30f6	1.5952442
11	0xbe2c702c	-0.16839665
12	0xbef2bf42	-0.47411543
13	0xbf6f9cdc	-0.93598723
14	0xbf5fe2bc	-0.87455344
15	0x3efc3c0d	0.49264565

model/conv2d_10/Conv2D/ReadVariableOp i1 [48, 1, 1, 64] scale=0.010535807 zero_point=0
0	0xe0	-0.33714584
1	0x37	0.5794694
2	0x0a	0.10535807
3	0xd2	-0.48464713
4	0x2f	0.49518293
5	0xc0	-0.6742917
6	0xfc	-0.04214323
7	0xc9	-0.5794694
8	0x30	0.50571877
9	0x00	0.0
10	0xed	-0.20018034
11	0x0f	0.15803711
12	0x09	0.094822265
13	0xf4	-0.12642969
14	0xf6	-0.10535807
15	0xca	-0.5689336
16	0x0c	0.12642969
17	0xd2	-0.48464713
18	0xfc	-0.04214323
19	0xff	-0.010535807
20	0x40	0.6742917
21	0xcc	-0.547862
22	0x0c	0.12642969
23	0xd8	-0.4214323
24	0x39	0.600541
25	0x0f	0.15803711
26	0xec	-0.21071614
27	0x17	0.24232356
28	0x16	0.23178776
29	0xc9	-0.5794694
30	0xd3	-0.47411132
31	0xe8	-0.25285938
32	0x22	0.35821745
33	0x37	0.5794694
34	0xd0	-0.50571877
35	0x2a	0.4425039
36	0xd9	-0.41089648
37	0xe7	-0.2633952
38	0xf8	-0.08428646
39	0x12	0.18964453
40	0x2e	0.48464713
41	0xf9	-0.07375065
42	0x10	0.16857292
43	0x1f	0.32661003
44	0xe8	-0.25285938
45	0xe8	-0.25285938
46	0xe4	-0.2950026
47	0x13	0.20018034
48	0xf0	-0.16857292
49	0xfa	-0.063214846
50	0x3f	0.66375583
51	0xea	-0.23178776
52	0xea	-0.23178776
53	0x0d	0.1369655
54	0xe0	-0.33714584
55	0x3f	0.66375583
56	0x17	0.24232356
57	0x1c	0.2950026
58	0xd9	-0.41089648
59	0x54	0.8850078
60	0x15	0.22125195
61	0xd1	-0.49518293
62	0x38	0.5900052
63	0x2c	0.4635755
64	0x02	0.021071615
65	0xe6	-0.273931
66	0x12	0.18964453
67	0xc4	-0.63214844
68	0xf6	-0.10535807
69	0x1a	0.273931
70	0x01	0.010535807
71	0x0b	0.11589388
72	0x0e	0.1475013
73	0x05	0.052679036
74	0x34	0.547862
75	0xf6	-0.10535807
76	0xe7	-0.2633952
77	0xf6	-0.10535807
78	0xfe	-0.021071615
79	0x01	0.010535807
80	0x17	0.24232356
81	0xfd	-0.031607423
82	0x03	0.031607423
83	0xf4	-0.12642969
84	0x19	0.2633952
85	0xec	-0.21071614
86	0x2a	0.4425039
87	0x2a	0.4425039
88	0xe6	-0.273931
89	0x0d	0.1369655
90	0x0b	0.11589388
91	0xed	-0.20018034
92	0xda	-0.40036067
93	0x14	0.21071614
94	0x0b	0.11589388
95	0x0f	0.15803711
96	0x0a	0.10535807
97	0x00	0.0
98	0x03	0.031607423
99	0x0f	0.15803711
100	0xfb	-0.052679036
101	0xf2	-0.1475013
102	0xf7	-0.094822265
103	0x14	0.21071614
104	0xf7	-0.094822265
105	0x0e	0.1475013
106	0x14	0.21071614
107	0xfb	-0.052679036
108	0x12	0.18964453
109	0x29	0.4319681
110	0x1a	0.273931
111	0x36	0.5689336
112	0xea	-0.23178776
113	0xfa	-0.063214846
114	0x04	0.04214323
115	0xfd	-0.031607423
116	0x22	0.35821745
117	0xf7	-0.094822265
118	0x21	0.34768164
119	0x15	0.22125195
120	0xed	-0.20018034
121	0xfe	-0.021071615
122	0xf7	-0.094822265
123	0x1e	0.31607422
124	0xf5	-0.11589388
125	0xe9	-0.24232356
126	0x0b	0.11589388
127	0xe6	-0.273931
128	0xeb	-0.22125195
129	0xf9	-0.07375065
130	0x23	0.36875325
131	0xd8	-0.4214323
132	0x15	0.22125195
133	0xea	-0.23178776
134	0x29	0.4319681
135	0x07	0.07375065
136	0xcb	-0.55839777
137	0xf7	-0.094822265
138	0xfc	-0.04214323
139	0xe2	-0.31607422
140	0xfd	-0.031607423
141	0xfb	-0.052679036
142	0xf9	-0.07375065
143	0x41	0.6848275
144	0x17	0.24232356
145	0xe9	-0.24232356
146	0xe1	-0.32661003
147	0xf7	-0.094822265
148	0xfd	-0.031607423
149	0xfc	-0.04214323
150	0x03	0.031607423
151	0xfe	-0.021071615
152	0x26	0.40036067
153	0xeb	-0.22125195
154	0xf2	-0.1475013
155	0xdd	-0.36875325
156	0x13	0.20018034
157	0xe7	-0.2633952
158	0xe8	-0.25285938
159	0xd9	-0.41089648
160	0xcf	-0.51625454
161	0xce	-0.5267904
162	0x0d	0.1369655
163	0x1c	0.2950026
164	0xe6	-0.273931
165	0x10	0.16857292
166	0x00	0.0
167	0xfb	-0.052679036
168	0xc4	-0.63214844
169	0xe2	-0.31607422
170	0x02	0.021071615
171	0xee	-0.18964453
172	0x35	0.55839777
173	0x1d	0.30553842
174	0xe4	-0.2950026
175	0xf7	-0.094822265
176	0xf4	-0.12642969
177	0x0b	0.11589388
178	0xc2	-0.65322006
179	0x2c	0.4635755
180	0x06	0.063214846
181	0xec	-0.21071614
182	0xff	-0.010535807
183	0xfa	-0.063214846
184	0xf6	-0.10535807
185	0xfd	-0.031607423
186	0x24	0.37928906
187	0xc1	-0.66375583
188	0xd7	-0.4319681
189	0xf5	-0.11589388
190	0xfe	-0.021071615
191	0xc6	-0.61107683
192	0xf7	-0.094822265
193	0x00	0.0
194	0x02	0.021071615
195	0x21	0.34768164
196	0xee	-0.18964453
197	0xda	-0.40036067
198	0x1b	0.2844668
199	0xe5	-0.2844668
200	0xd9	-0.41089648
201	0xd4	-0.4635755
202	0xd7	-0.4319681
203	0x1c	0.2950026
204	0xd3	-0.47411132
205	0x15	0.22125195
206	0xe0	-0.33714584
207	0x0e	0.1475013
208	0xe2	-0.31607422
209	0x08	0.08428646
210	0x17	0.24232356
211	0x18	0.25285938
212	0x09	0.094822265
213	0xfa	-0.063214846
214	0xd8	-0.4214323
215	0xe7	-0.2633952
216	0xf0	-0.16857292
217	0x2a	0.4425039
218	0xda	-0.40036067
219	0x26	0.40036067
220	0xed	-0.20018034
221	0x05	0.052679036
222	0x16	0.23178776
223	0x18	0.25285938
224	0x06	0.063214846
225	0x03	0.031607423
226	0x15	0.22125195
227	0x32	0.5267904
228	0xe4	-0.2950026
229	0xf5	-0.11589388
230	0x03	0.031607423
231	0xf1	-0.15803711
232	0x1f	0.32661003
233	0x32	0.5267904
234	0xe6	-0.273931
235	0x2c	0.4635755
236	0x06	0.063214846
237	0xf0	-0.16857292
238	0x16	0.23178776
239	0x1e	0.31607422
240	0xf5	-0.11589388
241	0xd7	-0.4319681
242	0xfc	-0.04214323
243	0xdf	-0.34768164
244	0x11	0.17910872
245	0x27	0.41089648
246	0x29	0.4319681
247	0xf3	-0.1369655
248	0xcc	-0.547862
249	0x18	0.25285938
250	0x20	0.33714584
251	0x12	0.18964453
252	0x3e	0.65322006
253	0xea	-0.23178776
254	0xf4	-0.12642969
255	0x1b	0.2844668

model/conv2d_10/Conv2D_bias f4 [48]
0	0x3ee7bd50	0.4526162
1	0xbeb23730	-0.3480773
2	0x3fa97cfd	1.3241268
3	0xbe66d5ed	-0.22542544
4	0xbf440984	-0.7657702
5	0x3eed9e4d	0.46409836
6	0xbf215042	-0.6301309
7	0x3f3def3d	0.74193174
8	0x3d54b998	0.05193481
9	0xbe04db2d	-0.12974234
10	0x3eabd352	0.33559662
11	0x3dd73b93	0.1050941
12	0xbea7b5e8	-0.3275597
13	0x3e7e84eb	0.24855392
14	0xbeac9bb4	-0.33712542
15	0x3f178157	0.5918173
16	0x3f59d827	0.8509545
17	0xbe7b5796	-0.2454513
18	0x3f8d6290	1.1045704
19	0x3f8e0180	1.1094208
20	0x3e4ed472	0.20198229
21	0x3f6e6a21	0.9313069
22	0x3e9fa51c	0.31180656
23	0xbe196111	-0.14978434
24	0x3e94a47e	0.29031748
25	0xbe4e19da	-0.20127049
26	0x3f6d0cec	0.9259784
27	0x3f4d44be	0.8018302
28	0x3f25544e	0.64581764
29	0xbf94e621	-1.163273
30	0x3ec7224a	0.38893348
31	0xbf2dee15	-0.6794141
32	0x3f127698	0.5721221
33	0xbf52ac20	-0.8229389
34	0x3f68326c	0.9070194
35	0xbc8df197	-0.017327113
36	0xbec0cc67	-0.37655947
37	0x3e9c4163	0.30518636
38	0x3f62538f	0.8840875
39	0xbe03630b	-0.1283075
40	0x3cfff131	0.031242939
41	0xbf4a21c3	-0.78957766
42	0x3ecb8e3d	0.39756957
43	0x3ed281bd	0.41114607
44	0xbf31955d	-0.69368535
45	0x3ec5494d	0.38532487
46	0xbe11d248	-0.14240372
47	0x3f32a644	0.6978495
