Model/tflite/face_parse_test.tflite (tflite, 819848 bytes, 156 tensors)

model/batch_normalization_12/FusedBatchNormV3_add_param f4 [32]
000000 be c7 89 be 65 cd c3 be 61 2a 7b be 07 b3 a5 be
       -0.26910204 -0.3824264 -0.24527885 -0.3236315
000010 24 ab 99 be 89 28 c0 be 17 44 b3 be b2 ad 92 be
       -0.30013382 -0.37530926 -0.35012886 -0.28648144
000020 c3 6c 97 be f4 2c 95 be c7 12 ad be 42 0e b9 be
       -0.29575166 -0.2913586 -0.33803388 -0.3614369
000030 04 31 9f be 2a 2c a4 be 25 0a 9a be 86 6c bc be
       -0.31092083 -0.32064945 -0.30085865 -0.36801547
000040 82 7e 91 be 72 00 99 be 70 df a5 be b8 fc 89 be
       -0.2841683 -0.29883152 -0.32397032 -0.26950622
000050 0c ce 9c be 98 16 a6 be c8 eb 4f be 25 27 70 be
       -0.3062595 -0.32439113 -0.20304787 -0.23452432
000060 0c 64 99 be b0 16 ba be cc d2 74 be 18 78 83 be
       -0.29959142 -0.36345434 -0.23908538 -0.25677562
000070 22 86 95 be ee 14 86 be 94 92 c2 be 87 e5 af be
       -0.29203898 -0.26187843 -0.38002455 -0.34354803

model/batch_normalization_12/FusedBatchNormV3_mul_0_param f4 [32]
000000 cc 17 a0 3f 11 80 bc 3f e0 32 97 3f f1 75 9e 3f
       1.2507262 1.4726583 1.1812401 1.2379743
000010 23 e6 96 3f 5a 75 a8 3f 2f c0 a2 3f 42 f5 9b 3f
       1.1788982 1.3160813 1.27149 1.2184222
000020 78 a5 9c 3f 6d 5d 9b 3f 42 83 af 3f 66 4a b0 3f
       1.2237997 1.2137886 1.3711932 1.3772705
000030 67 ff a8 3f 40 84 b0 3f 56 f6 a4 3f d9 1d a1 3f
       1.3202943 1.379036 1.2887676 1.2587234
000040 b3 7d 9f 3f 8b 41 c3 3f 54 03 ab 3f 5a ac 9e 3f
       1.2460235 1.5254377 1.3360391 1.2396348
000050 c1 7a 9f 3f c3 fe b4 3f 02 ea 96 3f 75 6f a3 3f
       1.2459337 1.4140247 1.1790164 1.2768389
000060 e7 a3 ab 3f 79 88 a4 3f 55 9a 9f 3f d6 ba a3 3f
       1.3409394 1.2854148 1.2468973 1.2791393
000070 e9 f3 a6 3f a8 30 99 3f 13 ce 97 3f 9c a7 a5 3f
       1.3043185 1.1967974 1.1859764 1.2941775

model/batch_normalization_16/FusedBatchNormV3_add_param f4 [32]
000000 10 ac 95 be ce 07 ac be 48 25 b2 be 02 bf c2 be
       -0.29232836 -0.33599705 -0.34794068 -0.38036352
000010 48 0e bf be c8 1d 8c be 90 a6 98 be 27 85 89 be
       -0.37315583 -0.2736647 -0.29814577 -0.268594
000020 87 ba 99 be 83 72 94 be f3 d0 bb be 8f 2f 98 be
       -0.30025122 -0.28993616 -0.36682853 -0.29723784
000030 ca 59 a6 be 3e 87 b9 be 17 8c d1 be 3c b5 a3 be
       -0.3249038 -0.36235994 -0.40927193 -0.31974208
000040 22 66 70 be 0b 94 90 be 00 85 ab be 4a 5d a7 be
       -0.2347646 -0.28237948 -0.33499908 -0.3268836
000050 cd 1e 83 be b0 c4 6a be 8e 11 a9 be c7 eb b4 be
       -0.25609437 -0.22926593 -0.33021206 -0.35336134
000060 77 9e ae be 7d 0b 85 be 38 65 8e be dd 5b 94 be
       -0.34105274 -0.25985327 -0.278116 -0.28976336
000070 fb d6 9d be 5a ea 85 be d8 06 84 be 27 e8 a1 be
       -0.3082808 -0.2615536 -0.2578647 -0.3162243

model/batch_normalization_16/FusedBatchNormV3_mul_0_param f4 [32]
000000 82 c7 98 3f 93 e2 9c 3f e7 1d 98 3f 3e e0 a3 3f
       1.1935885 1.2256645 1.1884125 1.2802808
000010 0f b0 a0 3f 53 24 b3 3f a5 b8 9f 3f 87 35 92 3f
       1.2553729 1.399546 1.2478224 1.1422585
000020 bc 21 9e 3f 76 b2 9a 3f 7b d4 a1 3f c4 e7 a8 3f
       1.2354045 1.2085712 1.2642969 1.3195729
000030 60 90 ab 3f 22 c0 a2 3f a2 ad ad 3f 1a 7d b5 3f
       1.3403435 1.2714884 1.3568614 1.4178803
000040 4f f4 a1 3f 2f 63 98 3f 63 8a a8 3f 1b 6f aa 3f
       1.2652682 1.1905268 1.3167232 1.3315157
000050 a1 fe 9a 3f a1 5d 9d 3f b5 55 9b 3f ed 19 95 3f
       1.2108957 1.2294198 1.2135531 1.1648537
000060 58 10 99 3f 10 08 a6 3f 54 4f a4 3f 64 30 ac 3f
       1.1958113 1.297121 1.2836709 1.3452268
000070 20 36 9a 3f 62 eb b6 3f 81 a9 b1 3f 63 25 9a 3f
       1.2047768 1.4290583 1.3879853 1.204266

model/batch_normalization_20/FusedBatchNormV3_add_param f4 [48]
000000 02 65 73 be 54 e1 ae be f0 2c 87 be d1 aa 80 be
       -0.23769 -0.34156287 -0.26401472 -0.25130323
000010 1e 22 95 be 08 6e 9e be a3 cb 7f be 06 ba c7 be
       -0.29127592 -0.30943322 -0.24980025 -0.39009112
000020 2d b1 a0 be f3 4d 95 be 9a 9f 8f be f5 58 ae be
       -0.31385174 -0.29161033 -0.28051454 -0.34052244
000030 31 e0 b7 be 77 1a a9 be 0b c3 bf be a2 80 79 be
       -0.35913232 -0.33028004 -0.37453493 -0.24365476
000040 fe c3 b1 be 71 39 9e be 3f 07 61 be 6c 7c 9d be
       -0.34719843 -0.309032 -0.2197542 -0.3075899
000050 a4 ef 9d be da 28 b9 be a1 c2 a9 be 5c b6 aa be
       -0.30846894 -0.3616398 -0.33156303 -0.33342254
000060 f3 31 88 be 1b ab 9e be d1 10 92 be e8 0a 79 be
       -0.26600608 -0.30989918 -0.28528455 -0.24320567
000070 90 5c 8d be cf 2e 87 be ce bd 92 be 15 67 b2 be
       -0.27609682 -0.264029 -0.28660434 -0.3484427
000080 8a 7f 90 be 16 5e a0 be fd 08 8c be c8 ec 96 be
       -0.28222305 -0.31321782 -0.27350608 -0.29477525
000090 f2 53 28 be ad b9 81 be 4d e2 94 be f0 d2 95 be
       -0.16438273 -0.25336972 -0.29078904 -0.29262495
0000a0 0d 6b 5f be a3 c6 7f be dc 5f c1 be 1f 72 a5 be
       -0.2181818 -0.24978118 -0.37768447 -0.3231363
0000b0 24 e4 9b be 6e 75 9a be 29 c7 b0 be 7e 0e 49 be
       -0.30447495 -0.30167717 -0.34526947 -0.19634435

model/batch_normalization_20/FusedBatchNormV3_mul_0_param f4 [48]
000000 58 11 94 3f e3 b1 a9 3f 18 67 98 3f 6e 90 86 3f
       1.1567793 1.3257412 1.1906462 1.0512826
000010 8a cf 9f 3f 96 10 94 3f 53 ca 9b 3f 62 8d 9e 3f
       1.2485211 1.1567562 1.217112 1.2386897
000020 bb 44 8f 3f a5 38 92 3f aa 53 97 3f 1f dd 99 3f
       1.119285 1.1423537 1.1822407 1.2020606
000030 73 d7 a3 3f 4a 71 a6 3f 9d 1e ab 3f 63 df ae 3f
       1.2800125 1.3003323 1.3368717 1.3661922
000040 a6 ac 9a 3f 49 57 9b 3f c0 58 8e 3f d8 55 97 3f
       1.2083938 1.2136012 1.1120834 1.1823072
000050 ed c3 94 3f bb 2e 90 3f 40 b8 9e 3f 23 c8 99 3f
       1.1622292 1.1264261 1.2399979 1.2014202
000060 66 74 a6 3f d8 23 8c 3f 36 1c a5 3f cb 28 90 3f
       1.3004272 1.0948439 1.2899234 1.1262449
000070 a2 fb 92 3f 81 10 95 3f 40 05 8f 3f 49 3e a0 3f
       1.1483042 1.1645662 1.1173477 1.2519008
000080 f4 11 a0 3f 85 0b 99 3f 84 d1 94 3f 76 66 8f 3f
       1.2505479 1.195664 1.1626439 1.1203144
000090 25 38 95 3f c7 2d 93 3f 87 bf aa 3f ee f8 ac 3f
       1.1657759 1.1498345 1.33397 1.3513467
0000a0 83 81 90 3f 90 c7 a1 3f e4 f4 a3 3f a5 50 92 3f
       1.1289524 1.2639027 1.280911 1.1430861
0000b0 6d 1a a8 3f 48 bf 95 3f 9c ce 93 3f ef e9 8e 3f
       1.3133065 1.1699 1.1547427 1.1165141

model/batch_normalization_24/FusedBatchNormV3_add_param f4 [48]
000000 04 39 8c be 9e fc ba be fa f0 95 be 85 f5 a3 be
       -0.2738725 -0.36520857 -0.29285413 -0.32023254
000010 e4 e8 97 be 9b 30 b4 be 1e b6 93 be d9 0e f3 be
       -0.2966987 -0.35193333 -0.28849882 -0.47472265
000020 32 2c b6 be 24 95 b8 be c2 ce 92 be 60 d7 ae be
       -0.35580593 -0.36051285 -0.2867337 -0.34148693
000030 0d be b0 be 98 0c ad be 09 0f a8 be 9c e8 5f be
       -0.34519997 -0.3379867 -0.3282397 -0.21866077
000040 f0 fe b8 be 6a cf 98 be a0 a0 92 be 59 ef b0 be
       -0.36132002 -0.29845744 -0.28638172 -0.34557608
000050 6b 96 b6 be cc fe df be 9c ee b5 be 72 80 d3 be
       -0.35661635 -0.43749082 -0.35533607 -0.41308933
000060 65 a5 83 be 97 b6 ca be 23 31 83 be 9d 71 9b be
       -0.25712124 -0.3959243 -0.25623426 -0.30360118
000070 70 19 c4 be be 19 9d be 15 aa a7 be 79 19 ba be
       -0.38300657 -0.30683702 -0.3274695 -0.3634756
000080 66 a4 92 be f7 19 b4 be 57 0b 83 be 36 a6 af be
       -0.2864105 -0.3517606 -0.2559459 -0.34306496
000090 8c e4 52 be 1e 9b 8a be bb 0a 85 be bd ee 9f be
       -0.20594996 -0.2707147 -0.2598475 -0.3123683
0000a0 bd 33 7c be ca 29 7a be 34 1b b0 be 76 ca cf be
       -0.24629112 -0.24430004 -0.34395754 -0.40584153
0000b0 3a 70 8f be d8 1c a9 be 16 7d cb be 52 2a 7f be
       -0.2801531 -0.3302982 -0.3974387 -0.24918488

model/batch_normalization_24/FusedBatchNormV3_mul_0_param f4 [48]
000000 01 c2 a2 3f b1 60 ac 3f 52 1b a6 3f 65 21 a0 3f
       1.2715455 1.3467008 1.2977087 1.2510191
000010 6c 3b a0 3f ed d2 a3 3f e5 7d b5 3f f2 af bf 3f
       1.2518134 1.2798744 1.4179045 1.4975569
000020 df 93 9b 3f 85 76 af 3f 1f f1 98 3f 28 eb a7 3f
       1.2154502 1.3708044 1.1948584 1.3118639
000030 e4 91 a3 3f fd 4a a2 3f 33 b3 a1 3f 52 f3 aa 3f
       1.2778897 1.2679135 1.2632812 1.3355505
000040 be 27 a1 3f 99 17 9a 3f cd 15 a2 3f 01 ab ad 3f
       1.2590253 1.2038451 1.2662903 1.3567811
000050 f2 32 a5 3f db a6 ae 3f f9 69 ad 3f df 7b bd 3f
       1.2906172 1.364467 1.3547965 1.4803427
000060 01 cb a1 3f e5 3f ac 3f b8 85 a5 3f 49 a2 ab 3f
       1.2640077 1.3456999 1.2931433 1.34089
000070 54 1d c7 3f 44 8e ad 3f 4a a1 9c 3f ee ae ae 3f
       1.5555825 1.3559041 1.2236722 1.3647134
000080 90 3a a8 3f 83 f8 a2 3f 4a 16 99 3f ca 14 a3 3f
       1.3142872 1.273209 1.1959927 1.2740719
000090 24 9e a0 3f 8c b3 9c 3f 6d 54 93 3f 75 97 ae 3f
       1.2548261 1.2242293 1.151014 1.3639971
0000a0 e7 63 9c 3f 3d 46 a1 3f 01 2b a0 3f 04 ae b9 3f
       1.2217988 1.259956 1.2513124 1.450623
0000b0 2b 98 a5 3f cb 7f a5 3f 37 b6 b0 3f a3 cb ac 3f
       1.2937063 1.2929624 1.3805608 1.3499645

model/batch_normalization_28/FusedBatchNormV3_add_param f4 [48]
000000 08 af c6 be 56 b2 b4 be bb bc ab be 72 c8 ca be
       -0.38805413 -0.3529231 -0.33542427 -0.39606053
000010 ef 6d 99 be 5a c9 ae be f1 3b 92 be d6 53 ff be
       -0.29966685 -0.34137994 -0.28561357 -0.4986865
000020 e8 96 bb be 0d 7e c3 be 19 87 a2 be 0e ec a6 be
       -0.3663857 -0.38182107 -0.31743696 -0.3260197
000030 e9 48 c0 be ab 20 af be 81 38 bc be b8 b5 7d be
       -0.37555626 -0.3420461 -0.3676186 -0.24776351
000040 66 9d bc be 72 f6 cc be 12 b2 a8 be c1 9e 9a be
       -0.36838835 -0.40031773 -0.32948357 -0.30199245
000050 78 c7 c3 be 1c 5c dc be b7 ca cc be 08 e9 c4 be
       -0.3823812 -0.43039024 -0.3999841 -0.3845904
000060 83 ad 90 be 32 79 b2 be 02 40 9d be 08 09 93 be
       -0.2825738 -0.3485809 -0.30712897 -0.28717828
000070 da 8c c2 be 75 3e ae be f7 08 a4 be a4 e7 b4 be
       -0.37998086 -0.34032026 -0.3203809 -0.35332978
000080 74 8b 9b be ea 83 ba be 1b 93 a4 be 26 60 d4 be
       -0.30379832 -0.36428767 -0.32143483 -0.41479605
000090 6e 12 4f be 42 ed 9b be ae 4a 9b be ab 91 89 be
       -0.20221874 -0.3045445 -0.30330414 -0.26868948
0000a0 9a fd 82 be 70 42 79 be 73 48 c3 be aa e6 f7 be
       -0.25584108 -0.2434175 -0.38141212 -0.4841817
0000b0 29 88 8d be 1d 25 a0 be c8 61 be be 7e 32 82 be
       -0.27642944 -0.31278315 -0.37183976 -0.25429147

model/batch_normalization_28/FusedBatchNormV3_mul_0_param f4 [48]
000000 79 ca d7 3f 81 53 bd 3f 43 c3 b9 3f 4d 67 c3 3f
       1.6858665 1.4791108 1.4512714 1.52659
000010 93 8a b4 3f ed cf a8 3f 48 74 b0 3f ee 82 c8 3f
       1.410479 1.3188454 1.3785486 1.5664957
000020 e5 ae a4 3f 86 f0 b1 3f 0c ab a4 3f b5 78 b0 3f
       1.2865874 1.3901527 1.2864699 1.3786837
000030 6a 0a b3 3f 59 cc ba 3f 7c 8d aa 3f a7 9b ae 3f
       1.3987553 1.4593612 1.3324428 1.3641251
000040 ce ec 9f 3f a0 f4 c2 3f f0 34 b3 3f 7b cf a6 3f
       1.2494142 1.5230904 1.400053 1.3032068
000050 71 1d ba 3f 33 e5 b6 3f 96 d2 bf 3f 0f 9a b1 3f
       1.4540235 1.4288696 1.4986141 1.387514
000060 16 03 b3 3f 1e 10 9c 3f a4 52 af 3f b7 9b a9 3f
       1.3985317 1.2192419 1.3697095 1.3250645
000070 28 fb bc 3f 4a a7 b5 3f ad ad 9b 3f c2 f4 b3 3f
       1.4764147 1.4191678 1.2162377 1.4059069
000080 0e d8 a6 3f f1 f9 ae 3f 86 58 b1 3f 4e 41 bb 3f
       1.3034685 1.3670026 1.385514 1.4629304
000090 68 1b a7 3f 8b c7 ad 3f 62 63 b6 3f 35 c8 a6 3f
       1.3055239 1.3576521 1.4249079 1.3029848
0000a0 c9 5f a7 3f e7 2f af 3f c9 91 ab 3f c7 1f cd 3f
       1.3076106 1.3686494 1.3403865 1.6025323
0000b0 11 9e a5 3f d3 4d b0 3f f2 e0 a5 3f 38 47 b5 3f
       1.2938863 1.377375 1.2959273 1.4162359

model/batch_normalization_32/FusedBatchNormV3_add_param f4 [48]
000000 a6 60 cb be f3 ce bf be f9 c4 9d be 40 4d ca be
       -0.39722174 -0.37462577 -0.3081434 -0.39512062
000010 28 84 a7 be c3 50 b6 be 52 32 90 be 86 4e 01 bf
       -0.32718015 -0.3560849 -0.2816339 -0.5051044
000020 f4 6b d3 be 2c 6d ab be 37 52 a2 be 2f 68 ac be
       -0.412933 -0.3348173 -0.3170335 -0.33673236
000030 d3 f9 b0 be 75 8a ad be af 79 c5 be f8 79 8d be
       -0.345656 -0.33894697 -0.385694 -0.27632117
000040 29 48 c0 be cc 37 d3 be ae 05 9e be 96 3d d2 be
       -0.37555054 -0.41253507 -0.30863708 -0.4106261
000050 e7 7f cc be 71 63 d0 be 44 d7 dd be 58 cb c8 be
       -0.39941332 -0.40700868 -0.43328297 -0.3921764
000060 ce 69 99 be 7e df c5 be 96 06 a6 be 99 39 a2 be
       -0.29963535 -0.38647074 -0.324269 -0.3168457
000070 6e 53 c0 be 99 3d 96 be e9 75 ad be b5 aa c2 be
       -0.37563652 -0.2934387 -0.3387902 -0.38020864
000080 1f 3f 9c be 74 d9 c3 be b4 de ac be 06 13 b3 be
       -0.30516908 -0.3825184 -0.3376366 -0.3497545
000090 a2 ff 49 be 8a 1b a2 be 5e 79 a4 be 27 26 99 be
       -0.19726422 -0.31661636 -0.32123846 -0.2991192
0000a0 30 83 a1 be fe fe 89 be fa 0a c2 be 72 81 ea be
       -0.315454 -0.26952356 -0.37899 -0.45801884
0000b0 2f 5f 9c be 81 f3 a6 be ee 7d da be 1c 32 71 be
       -0.3054137 -0.32607654 -0.42674202 -0.23554271

model/batch_normalization_32/FusedBatchNormV3_mul_0_param f4 [48]
000000 0c ed ce 3f d0 ed c9 3f 69 d0 a2 3f ad b8 bf 3f
       1.6166091 1.57757 1.2719852 1.4978234
000010 b8 f2 b4 3f 86 ff ae 3f e0 6f b2 3f 16 93 c9 3f
       1.4136572 1.367173 1.3940392 1.5748012
000020 0f 65 b8 3f d8 90 9e 3f a9 13 a4 3f 9c f5 a6 3f
       1.4405841 1.2387953 1.28185 1.3043704
000030 1d ca a7 3f ed 0c bf 3f 7d 43 bb 3f 38 58 b6 3f
       1.3108555 1.492582 1.4629971 1.4245672
000040 17 fc aa 3f 3c 20 c9 3f 80 cc b1 3f b5 80 c8 3f
       1.3358182 1.5712962 1.3890533 1.5664278
000050 e7 ce b6 3f 7a 81 ad 3f 1f e8 cf 3f 11 48 b6 3f
       1.4281892 1.3555138 1.6242713 1.4240743
000060 7f 0d bd 3f d7 8e a6 3f aa 60 b5 3f fe 17 b5 3f
       1.4769744 1.3012341 1.4170125 1.4147947
000070 72 66 b9 3f 84 75 ad 3f f2 7a a2 3f de 18 be 3f
       1.4484389 1.3551488 1.269377 1.4851339
000080 5c b0 b2 3f e1 82 b3 3f 49 07 b9 3f 68 29 a9 3f
       1.3960071 1.4024316 1.4455348 1.3215761
000090 b3 c0 9f 3f 49 c2 b2 3f e6 f9 bf 3f b0 53 b3 3f
       1.2480682 1.3965541 1.4998138 1.4009914
0000a0 df 86 b3 3f 7f 18 b4 3f 4d 11 c4 3f cb 10 c8 3f
       1.4025534 1.4069976 1.531778 1.5630125
0000b0 59 37 b7 3f 74 f6 ac 3f 97 df b8 3f b2 7b a9 3f
       1.4313766 1.3512712 1.4443234 1.3240874

model/batch_normalization_36/FusedBatchNormV3_add_param f4 [48]
000000 90 01 9f be b4 c8 b9 be 59 76 ac be 1e 14 9a be
       -0.3105588 -0.36285937 -0.33684042 -0.30093473
000010 74 ba b0 be b8 ce b0 be 86 58 a1 be aa 75 e6 be
       -0.34517252 -0.34532714 -0.3151285 -0.45011646
000020 80 03 c8 be d6 2c b8 be c1 22 97 be 90 58 bc be
       -0.3906517 -0.35971707 -0.29518703 -0.36786318
000030 69 e9 b7 be 9a 58 bd be 73 99 af be f8 8a 61 be
       -0.35920265 -0.3698166 -0.3429676 -0.22025669
000040 c2 21 c7 be 4e f0 d4 be 62 10 ab be aa ff cf be
       -0.38892943 -0.41589588 -0.33410937 -0.40624744
000050 d6 6a be be 30 b8 e3 be be 4b d3 be ca 45 b9 be
       -0.37190884 -0.4447646 -0.41268724 -0.36186057
000060 b0 29 9b be a8 d1 c3 be e6 4d 98 be 69 30 a4 be
       -0.30305243 -0.38245893 -0.29746932 -0.32068184
000070 fa 1c d6 be a4 69 aa be 24 e5 ad be 50 aa c3 be
       -0.41818982 -0.33283722 -0.33963883 -0.38215876
000080 0f a6 a8 be fe 88 bc be 3d 86 b1 be 6e 1c c7 be
       -0.32939193 -0.36823267 -0.34672728 -0.38888878
000090 98 6e 49 be 93 2e 99 be 32 dc a0 be 25 02 a2 be
       -0.19671094 -0.29918346 -0.31417996 -0.3164226
0000a0 6a c6 9e be 54 e8 7f be 18 34 be be 85 a2 d9 be
       -0.31010753 -0.2499097 -0.3714912 -0.42506805
0000b0 a8 25 a2 be 43 19 a8 be c9 51 cf be 62 dc 95 be
       -0.31669354 -0.32831773 -0.40492085 -0.292697

model/batch_normalization_36/FusedBatchNormV3_mul_0_param f4 [48]
000000 dd 60 b3 3f a1 f7 c2 3f 81 04 b4 3f 9b 5b 99 3f
       1.4013935 1.523182 1.4063874 1.1981081
000010 cc 63 b9 3f 6e 51 a8 3f f6 4f be 3f 0d 23 b6 3f
       1.448358 1.314985 1.4868152 1.4229447
000020 c7 be b0 3f 28 e9 a9 3f 0e 90 a4 3f 1f 5f be 3f
       1.3808221 1.3274279 1.2856462 1.4872779
000030 65 0e ab 3f 23 2a ce 3f a7 2b a8 3f 8d a8 a5 3f
       1.3363768 1.6106609 1.3138322 1.2942063
000040 3a e7 af 3f af ee c8 3f 3b f4 c0 3f 23 dc c6 3f
       1.374244 1.569784 1.5074533 1.553593
000050 82 49 b0 3f 0c 7a b5 3f b0 7f c3 3f 45 03 aa 3f
       1.3772433 1.4177871 1.5273342 1.3282248
000060 4d 58 be 3f dd f9 a6 3f a2 f5 b6 3f 62 e2 b8 3f
       1.4870697 1.3045002 1.4293711 1.4444087
000070 ae 07 ca 3f bb 74 bc 3f 42 60 9e 3f a9 5c bc 3f
       1.5783594 1.4723123 1.2373126 1.4715778
000080 8c da b8 3f 5b 29 b0 3f 87 bd ba 3f ac 8b b5 3f
       1.4441695 1.3762621 1.4589089 1.418325
000090 64 2e a4 3f 1f 1b b5 3f 51 5b b1 3f 3e 4a c6 3f
       1.2826657 1.4148902 1.3855993 1.5491407
0000a0 30 c5 b8 3f aa e4 b1 3f 0b 0a b3 3f 3f 5d b9 3f
       1.4435177 1.3897908 1.398744 1.4481581
0000b0 44 c5 c0 3f fb da cc 3f b8 49 af 3f 37 ae b7 3f
       1.5060201 1.6004328 1.3694372 1.4350041

model/batch_normalization_4/FusedBatchNormV3_add_param f4 [16]
000000 07 23 73 be 93 d9 1a be 03 e3 96 be 48 3d 6e be
       -0.2374383 -0.1512206 -0.2947007 -0.23265564
000010 73 e0 59 be 23 88 bb be c6 8d 9d be 28 7b 86 be
       -0.21277027 -0.36627302 -0.30772227 -0.26265836
000020 c6 36 99 be 86 1a 45 be 63 29 4e be 85 a6 41 be
       -0.299246 -0.19248399 -0.20132975 -0.18911178
000030 41 1c 5e be 14 7e 6c be 22 ca 71 be 53 17 b1 be
       -0.21690466 -0.2309497 -0.23612264 -0.34588107

model/batch_normalization_4/FusedBatchNormV3_mul_0_param f4 [16]
000000 ef 01 92 3f 36 bf 89 3f 85 0c a4 3f 07 a4 a3 3f
       1.140684 1.0761478 1.2816321 1.2784432
000010 5c a5 9d 3f 0a d6 b4 3f f1 26 9a 3f de 19 9a 3f
       1.2316089 1.412782 1.2043134 1.2039144
000020 95 61 a1 3f 9b 05 b1 3f be e2 ba 3f 0f 6f a1 3f
       1.2607905 1.3829836 1.4600446 1.2612017
000030 1b 43 93 3f a4 c7 96 3f b0 0a 92 3f 30 b2 a3 3f
       1.1504854 1.1779675 1.1409512 1.2788754

model/batch_normalization_40/FusedBatchNormV3_add_param f4 [48]
000000 6f ba af be 23 76 a8 be fa 59 a5 be 81 2e c3 be
       -0.34321925 -0.3290263 -0.3229521 -0.38121417
000010 13 e9 aa be a2 f0 ba be 3a de 8f be c8 73 de be
       -0.33380947 -0.36511713 -0.28099233 -0.4344771
000020 3d 0f c5 be 1e f3 b4 be 93 aa b6 be b7 ef bd be
       -0.38488188 -0.35341734 -0.35677013 -0.3709695
000030 9f fa b5 be 26 d9 b0 be bb fc c2 be de 67 78 be
       -0.3554277 -0.3454067 -0.38083443 -0.24258372
000040 98 4d ba be 0e 6f b2 be db 0b 99 be 27 67 b9 be
       -0.36387324 -0.34850353 -0.29891858 -0.36211511
000050 08 93 c1 be 42 94 e8 be a1 14 dc be 52 d5 c0 be
       -0.37807488 -0.45425612 -0.4298449 -0.3766275
000060 3d 1c 94 be 95 f1 c4 be 7a 55 9e be 5c c2 92 be
       -0.28927794 -0.38465562 -0.30924588 -0.2866391
000070 ad 27 c9 be ef 70 a9 be 31 6a ad be ff 49 b5 be
       -0.39288083 -0.33093974 -0.3387008 -0.35408017
000080 78 be 8e be ba f5 b2 be c7 8c ae be 78 2c c6 be
       -0.2787969 -0.349531 -0.3409178 -0.38705802
000090 18 e4 80 be a0 b3 a2 be be 95 9d be 38 e9 97 be
       -0.25174022 -0.31777668 -0.30778307 -0.2967012
0000a0 39 27 89 be 17 7b 73 be 6b 65 b3 be 6e 66 b1 be
       -0.26787737 -0.23777424 -0.35038313 -0.3464846
0000b0 37 e1 96 be a3 4f b4 be 40 7d ce be e2 f8 91 be
       -0.294687 -0.35217008 -0.40329933 -0.28510195

model/batch_normalization_40/FusedBatchNormV3_mul_0_param f4 [48]
000000 24 4e bc 3f a6 ea bc 3f fd 61 b9 3f 1f 0f b4 3f
       1.4711347 1.4759109 1.4483029 1.4067115
000010 82 95 c6 3f c1 2b a9 3f e2 45 ba 3f 39 67 ad 3f
       1.5514376 1.3216478 1.4552577 1.3547126
000020 cb 57 ad 3f 99 ba a7 3f 23 8c bf 3f 4d 0a b8 3f
       1.3542417 1.310382 1.4964641 1.4378144
000030 57 2c ae 3f fa 42 c7 3f c3 3f b5 3f 91 4d ad 3f
       1.3607281 1.5567315 1.4160084 1.3539296
000040 04 7d af 3f 94 49 ac 3f 0e ad b1 3f 6e 41 b3 3f
       1.3710027 1.3459954 1.3880937 1.4004343
000050 a9 ca bc 3f 5e fa c4 3f 79 24 c6 3f 42 4c ad 3f
       1.4749347 1.5388906 1.547988 1.3538897
000060 4c 94 c1 3f 86 76 a9 3f 5e 44 af 3f 84 de b4 3f
       1.5123382 1.3239295 1.3692739 1.4130406
000070 5c 36 bf 3f e2 d0 b3 3f fe 38 a4 3f bc fe b1 3f
       1.4938464 1.4048121 1.2829893 1.3905864
000080 fa 0c a8 3f d0 07 a6 3f b7 d5 b3 3f 9b 24 b4 3f
       1.312896 1.2971134 1.4049596 1.4073671
000090 52 80 b7 3f b6 32 c1 3f 8d 9c bf 3f 60 98 c4 3f
       1.4336035 1.5093601 1.496965 1.5359001
0000a0 29 a1 a2 3f 3a d0 b3 3f 7d de a3 3f ba 60 9f 3f
       1.2705432 1.4047921 1.2802273 1.2451394
0000b0 ed a3 c7 3f 12 c2 c3 3f ec 5c af 3f 5e 5b b7 3f
       1.5596901 1.52936 1.3700233 1.4324758

model/batch_normalization_44/FusedBatchNormV3_add_param f4 [48]
000000 f5 7b a9 be 78 93 c3 be cd fc b3 be b7 56 ce be
       -0.33102384 -0.38198447 -0.3515381 -0.40300533
000010 91 24 ac be ef 21 bd be 51 f8 a2 be 5a 79 fc be
       -0.33621648 -0.36939952 -0.31830075 -0.49311334
000020 5b 73 bd be 73 3b 9c be 6c aa 99 be 6a 22 ba be
       -0.37002072 -0.30514106 -0.30012834 -0.3635438
000030 b1 9d b5 be cd d1 bc be da 16 ae be 4a 93 7a be
       -0.35471871 -0.36878815 -0.3400181 -0.24470249
000040 cb 46 bb be b6 ae b3 be a3 df 9b be c0 0e c1 be
       -0.36577448 -0.3509423 -0.3044406 -0.37706566
000050 cc a6 c6 be bd 55 da be dc 99 b4 be f6 2c c0 be
       -0.3879913 -0.42643538 -0.35273635 -0.37534302
000060 18 ae 9a be d4 ca c2 be 63 ab 88 be 52 98 9e be
       -0.30210948 -0.3804537 -0.26693258 -0.30975586
000070 db 03 cb be 0c 5c a8 be 17 90 c1 be de 98 c3 be
       -0.3965138 -0.32882726 -0.37805244 -0.38202566
000080 c3 69 98 be a9 cc d2 be 4a 8c ac be b1 b1 ae be
       -0.2976819 -0.41171768 -0.33700782 -0.34119943
000090 48 fd 72 be be 10 9c be 88 25 a3 be 85 e7 97 be
       -0.23729432 -0.30481523 -0.31864572 -0.29668823
0000a0 5e 81 8d be e8 62 81 be 94 d1 b2 be 9e 31 e3 be
       -0.27637762 -0.25270772 -0.3492552 -0.44373792
0000b0 c8 7a 9c be 5b 10 ab be ef 75 bf be 1e 86 91 be
       -0.30562425 -0.33410916 -0.37394664 -0.28422636

model/batch_normalization_44/FusedBatchNormV3_mul_0_param f4 [48]
000000 55 5a b8 3f a6 82 c5 3f 47 bd b8 3f f1 9a c0 3f
       1.4402567 1.5430496 1.4432763 1.5047284
000010 f7 a7 c6 3f 57 cb b2 3f f9 00 bb 3f 78 85 c3 3f
       1.5520009 1.3968304 1.4609672 1.5275106
000020 40 ca ab 3f 73 5a 92 3f df cd 9f 3f 99 e6 ba 3f
       1.3421097 1.1433853 1.2484702 1.4601623
000030 fa 7f af 3f f1 d0 bd 3f aa 74 a8 3f 0d 7a ad 3f
       1.371093 1.4829389 1.3160603 1.3552872
000040 d9 9e ac 3f 7b 82 ad 3f 45 f9 a9 3f 4f 11 be 3f
       1.3485976 1.3555444 1.3279196 1.4849032
000050 27 61 c1 3f 27 44 b0 3f 55 3c b0 3f 05 ce b1 3f
       1.5107774 1.3770798 1.3768412 1.3890997
000060 7a 77 c5 3f df 00 a6 3f 68 04 af 3f 53 a7 c2 3f
       1.5427086 1.2969016 1.367322 1.5207313
000070 d8 14 c4 3f 46 b7 b2 3f 6d bf b5 3f fd 5d be 3f
       1.5318861 1.3962181 1.4199044 1.4872433
000080 77 b6 ad 3f 90 f0 bd 3f d8 de af 3f 1b b0 a2 3f
       1.3571309 1.4839039 1.3739882 1.2709993
000090 96 14 ad 3f bb a6 aa 3f 59 43 ba 3f ce 20 b6 3f
       1.3521907 1.3332132 1.4551803 1.4228761
0000a0 ab 5d a4 3f 09 68 aa 3f fb 3f a9 3f 5a 3a c1 3f
       1.2841085 1.3312999 1.322265 1.5095932
0000b0 ed fc b2 3f c8 f4 bd 3f 8d 19 a0 3f 5c 8d b6 3f
       1.3983437 1.4840326 1.2507797 1.426189

model/batch_normalization_45/FusedBatchNormV3_add_param f4 [64]
000000 40 b7 45 3a 3b fa be 3c 13 6f 81 3d 2c 14 28 be
       0.000754226 0.023312679 0.06320014 -0.16413945
000010 9f c7 d5 bc 82 1c 3f bd 84 f0 13 bd 7c 7e df bd
       -0.026096163 -0.046658047 -0.036118045 -0.10912797
000020 26 b5 f4 bd 04 e3 73 bc 9c 1d 86 bd 6b 0f 6d bd
       -0.11948614 -0.014885668 -0.06548616 -0.05787603
000030 14 96 4f 3d 50 a4 a5 bd 9d 5f 3f 3d ca c5 c7 bc
       0.050680235 -0.08087981 0.046722043 -0.024386305
000040 24 78 d4 bd a8 31 41 bc 02 09 bd bc 47 81 22 bd
       -0.103744775 -0.011791624 -0.023075584 -0.03967407
000050 38 33 de bd 69 f8 a4 bd 46 e4 c7 3c de a7 d9 bc
       -0.10849613 -0.08055193 0.024400841 -0.026569303
000060 8c 94 20 3c 59 81 8e bd 80 26 1d 39 f3 52 47 bc
       0.009801041 -0.06958265 0.00014987029 -0.012165773
000070 1d f4 87 bd 32 f2 f4 bd b7 c7 d3 3c c4 8f 0a 3e
       -0.06638358 -0.119602576 0.025852067 0.13531405
000080 c0 38 fe bd 87 76 0a 3d f6 50 fe bd c5 10 8c bc
       -0.12413168 0.033804443 -0.12417786 -0.01709784
000090 c4 e1 08 bd 9b 0d 36 bd 1f d0 81 bd 66 6c 5f 3d
       -0.033418432 -0.04444657 -0.06338524 0.054546736
0000a0 e0 86 fc 3a c9 cf f2 bd 94 3b 4d bd 3c 65 de 3d
       0.001926627 -0.11856038 -0.050105646 0.10859153
0000b0 71 0b 04 bc 38 f9 fa bd d4 8d 9c 3d 7c be 5c bc
       -0.0080593685 -0.12254566 0.07644239 -0.013473149
0000c0 78 50 17 be 68 ef 01 bd 08 60 e4 3b 5a cd 8e bd
       -0.1477679 -0.031722456 0.0069694556 -0.069727615
0000d0 04 0f 02 bd 84 60 af 3a 91 44 68 bd 60 21 f6 3a
       -0.0317526 0.0013380204 -0.056706015 0.0018778257
0000e0 4a af 15 3c 11 7a 6d 3d c2 83 c5 3d 31 7e 8e bd
       0.00913603 0.05797774 0.096442714 -0.06957663
0000f0 f2 31 87 bc 79 52 51 3d 40 af c5 bc aa 1d 4a 3d
       -0.016503308 0.051104043 -0.024131417 0.049344696

model/batch_normalization_45/FusedBatchNormV3_mul_0_param f4 [64]
000000 3e c6 32 3d 83 80 57 3d 87 90 23 3d 22 6a 38 3d
       0.04364609 0.052612793 0.039932754 0.04502309
000010 43 e5 2f 3d 7c e1 76 3d 33 70 35 3d 3f a1 47 3d
       0.04294325 0.060273632 0.044296455 0.04873776
000020 06 5e 42 3d 93 2e 44 3d 1b 2a 2e 3d f5 fe 55 3d
       0.04745295 0.04789598 0.042520624 0.0522451
000030 f3 2d 61 3d 1d 99 48 3d 32 90 36 3d 5d 8b 3e 3d
       0.05497546 0.048974145 0.04457111 0.046519626
000040 85 80 65 3d a9 1b 5e 3d dd b7 5a 3d 0e 06 8a 3d
       0.05603077 0.054225598 0.053398002 0.06739436
000050 60 30 5f 3d 36 11 32 3d e6 73 5b 3d a7 ab 44 3d
       0.054489493 0.043473445 0.053577326 0.048015263
000060 61 02 35 3d 78 37 43 3d 3a a2 3a 3d 92 9f 57 3d
       0.04419172 0.04766032 0.045564868 0.052642412
000070 bf 16 3d 3d e4 e0 31 3d 7c ef 53 3d 60 8e 31 3d
       0.04616427 0.043427363 0.051742062 0.04334867
000080 dd d1 45 3d 73 61 3d 3d d9 dd 38 3d ea e1 46 3d
       0.048295844 0.046235513 0.045133445 0.048555292
000090 8d 0a 34 3d ea a5 57 3d 6f c3 3b 3d 6a 4b 4d 3d
       0.043955375 0.052648462 0.045840677 0.05012075
0000a0 d2 da 60 3d 5a 6e 34 3d ab 7c 5c 3d 30 09 5d 3d
       0.054896183 0.044050552 0.05382983 0.05396384
0000b0 08 44 4d 3d b1 8b 37 3d 6f 1b 2d 3d ea 56 5b 3d
       0.050113708 0.044810954 0.04226249 0.053549685
0000c0 87 f9 39 3d 26 f3 59 3d 45 3d 36 3d 1c d8 3a 3d
       0.045403983 0.0532104 0.044492025 0.045616254
0000d0 82 ac 44 3d 90 aa 4d 3d d8 7c 32 3d 64 45 44 3d
       0.04801608 0.05021149 0.04357609 0.04791774
0000e0 0b ce 40 3d 5a bd 3c 3d 86 7c 58 3d 48 32 40 3d
       0.047071498 0.046079017 0.05285313 0.046922952
0000f0 9f 4c 4e 3d 28 f0 42 3d fc fd 44 3d ce e3 48 3d
       0.05036604 0.047592312 0.04809378 0.049045376

model/batch_normalization_46/FusedBatchNormV3_add_param f4 [48]
000000 a2 a2 3e 3e 58 59 d4 3c f1 f8 d9 bd 5f 23 ec bd
       0.18616727 0.025921509 -0.10643185 -0.11530184
000010 7f ac ef bd 30 60 e9 3e e2 d7 60 bd ab ec 99 3d
       -0.11702823 0.45581198 -0.054893382 0.07515844
000020 61 f6 33 be fa e0 45 3e 56 8b 52 bd b8 fd db 3d
       -0.17574455 0.19324103 -0.051402412 0.107417524
000030 06 a9 87 be 45 b8 16 3e 8e 9d f8 bd 7a eb d0 be
       -0.26496142 0.14718731 -0.12139426 -0.40804654
000040 06 e5 49 3e 4b 23 b6 be 5b 62 ff 3d dc fc 32 3d
       0.19716272 -0.355738 0.12469932 0.043698177
000050 8e 5a 8c 3e 66 e3 85 3d ea 3c 37 3e c3 81 01 be
       0.27412838 0.065375134 0.1789433 -0.12647156
000060 8d c1 25 be 04 2b 0b be 39 ab 22 be 7c f5 2b be
       -0.16187115 -0.13590628 -0.15885629 -0.16792864
000070 34 5a e1 bd a8 a8 fb bd 38 c1 a4 bd d0 d2 31 be
       -0.11003533 -0.12288028 -0.08044666 -0.17365575
000080 6d 15 3f bd 29 df bb 3e 31 0e f9 bd 77 28 ac bd
       -0.046651293 0.36693695 -0.1216091 -0.084061556
000090 cf 07 bd bd e9 09 9d bd 82 69 95 bd 57 c6 38 be
       -0.09230005 -0.07667906 -0.07295515 -0.1804441
0000a0 f7 7d bb bd 32 a4 f8 bd d0 a7 5e 3e 72 6c ec bd
       -0.09154885 -0.12140693 0.21743703 -0.11544122
0000b0 24 91 5a be 4e ae 93 bc f2 72 ee bd d6 70 86 3d
       -0.21344429 -0.01802745 -0.11643018 0.065644905

model/batch_normalization_46/FusedBatchNormV3_mul_0_param f4 [48]
000000 0e d7 2c 3f bb fe 7f 3f 84 33 82 3f b4 c2 5e 3f
       0.6751565 0.9999806 1.0171971 0.87015843
000010 7b d8 87 3f cd e2 6e 3f 7b 68 70 3f 3f 44 5d 3f
       1.061294 0.9331482 0.93909425 0.8643226
000020 ae 2f 53 3f 86 b7 7a 3f c4 d2 50 3f 24 65 7f 3f
       0.8249463 0.97936285 0.815716 0.99763703
000030 c6 5b 60 3f 8c e8 49 3f 8c ef 5e 3f 23 da 3d 3f
       0.87640035 0.78870463 0.8708427 0.74160975
000040 fd 9e 63 3f ef 5e 7c 3f e9 88 5d 3f 89 21 4d 3f
       0.8891447 0.9858236 0.86537033 0.80129296
000050 66 42 98 3f d4 37 78 3f df e1 64 3f c9 c2 84 3f
       1.1895263 0.96960187 0.8940715 1.0371944
000060 4d 95 35 3f fa d0 7c 3f 80 1c 4e 3f 2c 2e 8a 3f
       0.7093094 0.9875637 0.8051224 1.079534
000070 a6 76 83 3f f3 e7 81 3f 5e 06 4a 3f 8d f4 71 3f
       1.0270584 1.014891 0.78915966 0.9451378
000080 7c 24 84 3f 32 15 8c 3f b5 49 70 3f 4b c9 77 3f
       1.0323634 1.0943968 0.9386247 0.96791524
000090 44 c2 5d 3f 6b f4 41 3f 59 b5 75 3f a0 78 75 3f
       0.8662455 0.7576358 0.9597984 0.95887184
0000a0 df f4 78 3f 16 86 8d 3f 67 88 6c 3f 39 b5 92 3f
       0.97248644 1.1056545 0.92395633 1.1461555
0000b0 1b ec 6d 3f 29 74 78 3f 83 f4 7d 3f 7a ee 81 3f
       0.92938393 0.97052246 0.9920122 1.0150902

model/batch_normalization_47/FusedBatchNormV3_add_param f4 [32]
000000 1b 86 a9 be 1e 84 28 be e0 6a 7c 3d ce 3b 91 be
       -0.33110127 -0.16456649 0.06162536 -0.2836594
000010 8a ef 3e be 61 61 a4 be 27 c9 40 be 99 56 ae 3d
       -0.18646064 -0.32105544 -0.18826734 0.08512611
000020 50 96 7d be 74 36 8b 3d da 12 aa 3e 40 ae 84 3e
       -0.24764371 0.067974955 0.33217508 0.25914192
000030 4c 71 4e be 71 53 80 3e 5d 6d 89 be a6 02 2d be
       -0.20160407 0.2506366 -0.2684125 -0.16895542
000040 a8 53 ce bd bd 1c c5 bd fd a1 2d 3e 49 5c 99 3d
       -0.1007455 -0.09624622 0.16956325 0.07488305
000050 d4 65 90 3d 0e c3 2d be 7a 36 d0 bd 68 d8 8c bb
       0.07050672 -0.16968939 -0.101666406 -0.0042982586
000060 1c 7d 0d 3e e2 66 1d 3e 66 f8 68 3e 72 1a a9 3e
       0.13817257 0.15371278 0.22751006 0.3302799
000070 34 c4 db 3d 3a af 99 bc ec 07 e2 bd e2 27 ec 3d
       0.10730782 -0.018760312 -0.11036667 0.115310445

model/batch_normalization_47/FusedBatchNormV3_mul_0_param f4 [32]
000000 28 bf 65 3f 41 13 6e 3f 1c c9 6c 3f 5c 5b 6b 3f
       0.89744806 0.9299813 0.9249437 0.9193628
000010 83 17 64 3f ed 71 3b 3f a0 a5 6a 3f 51 f2 61 3f
       0.89098376 0.7322071 0.91658974 0.8826037
000020 67 83 57 3f 4f d4 59 3f 0a ab 2d 3f ad fb 29 3f
       0.8418488 0.8508958 0.6783911 0.6639965
000030 46 b4 64 3f 53 16 4e 3f 5f e6 3f 3f 77 32 89 3f
       0.89337575 0.80502814 0.74960893 1.0718526
000040 57 1d 35 3f f5 6f 47 3f f0 cf 67 3f 29 d2 32 3f
       0.70747894 0.7790521 0.9055166 0.6985193
000050 f3 ad 61 3f ed 29 55 3f 3b d8 32 3f 79 a7 6d 3f
       0.8815605 0.832671 0.6986119 0.9283367
000060 a1 78 34 3f 5d c9 55 3f 2a 2e 41 3f 67 59 46 3f
       0.70496565 0.8351038 0.75461066 0.7748017
000070 bd 9e 46 3f 93 06 48 3f 18 b1 4b 3f 01 b9 47 3f
       0.77585965 0.7813503 0.795671 0.7801667

model/batch_normalization_48/FusedBatchNormV3_add_param f4 [16]
000000 bd 6e ba 3e a3 78 68 be 95 07 4e 3e e0 b8 19 bc
       0.36412612 -0.2270227 0.2012008 -0.009382457
000010 a6 c5 8e 3e d8 c6 bd 3e 57 42 60 3e d3 e9 1b bd
       0.2788517 0.37065768 0.21900307 -0.03806479
000020 8a cc 64 be 09 af cf bd c5 b1 60 bd c4 4a 8e 3e
       -0.2234365 -0.10140807 -0.054857034 0.27791417
000030 ca 19 a4 bd 11 c1 e9 be 54 c6 1e 3d 38 ef 0e bd
       -0.080127314 -0.4565511 0.03876336 -0.034896106

model/batch_normalization_48/FusedBatchNormV3_mul_0_param f4 [16]
000000 4f e2 8a 3f 92 5e 7f 3f 84 44 61 3f cc ed 61 3f
       1.0850314 0.9975368 0.8799517 0.88253474
000010 f6 44 89 3f 15 fd 85 3f 5c 7a 87 3f a3 bc 81 3f
       1.072417 1.046786 1.0584216 1.0135692
000020 87 49 86 3f 2d b9 7e 3f 4e 3f 4d 3f b5 97 84 3f
       1.0491189 0.99501306 0.8017472 1.0358797
000030 21 88 79 3f bd fd 73 3f df 77 96 3f 23 7b 58 3f
       0.9747334 0.9530905 1.1755332 0.8456289

model/batch_normalization_49/FusedBatchNormV3_add_param f4 [8]
000000 6d 8c 22 bb e8 75 39 3d b2 5e 02 bd 80 1d 8c 3e
       -0.0024802939 0.04527846 -0.03182859 0.27366257
000010 a1 a5 7f bd 74 89 50 3e 45 92 9b 3e 5b 5b d5 3d
       -0.062413815 0.20364934 0.30385032 0.10417815

model/batch_normalization_49/FusedBatchNormV3_mul_0_param f4 [8]
000000 fe 4d 74 3f 8f ed 53 3f 14 82 81 3f 5b 99 82 3f
       0.95431507 0.8278436 1.0117822 1.020305
000010 b1 23 46 3f 69 9a 51 3f ca b0 7e 3f e7 b0 88 3f
       0.7739821 0.81876236 0.9948851 1.0678986

model/batch_normalization_8/FusedBatchNormV3_add_param f4 [16]
000000 a2 9d c5 be 54 05 7c be d2 91 84 be 53 1f a9 be
       -0.38596827 -0.24611408 -0.25892502 -0.3303171
000010 d5 de 7c be 46 a9 c5 be 9f 23 c8 be 2e a0 a6 be
       -0.24694379 -0.38605708 -0.39089677 -0.32544082
000020 cf 13 81 be f4 89 ac be 98 2b 9e be 56 fc 92 be
       -0.25210425 -0.33699 -0.30892634 -0.28708142
000030 f3 7b 5f be 59 19 9c be 43 67 8f be 43 1b 98 be
       -0.21824627 -0.3048809 -0.2800847 -0.297083

model/batch_normalization_8/FusedBatchNormV3_mul_0_param f4 [16]
000000 22 a7 c1 3f eb 2f 94 3f 18 29 9b 3f 0c 5d b9 3f
       1.512913 1.1577123 1.2121916 1.4481521
000010 df 94 8e 3f 6d 6c c0 3f 6c 11 b5 3f ab 9a b2 3f
       1.1139182 1.5033089 1.4145942 1.3953451
000020 b6 82 ab 3f 80 22 b0 3f bf 32 9f 3f 8f 61 a5 3f
       1.3399265 1.3760529 1.2437361 1.2920398
000030 de be 97 3f 1d 65 9a 3f eb 57 99 3f be fd 8f 3f
       1.1855123 1.2062107 1.1979955 1.1249311

model/conv2d/Conv2D/ReadVariableOp f4 [8, 3, 3, 3]
000000 26 e0 92 bc 6c 81 dc 3d 3f c4 41 be 63 10 5f 3d
       -0.017929148 0.10766873 -0.18922518 0.054458987
000010 60 15 38 be d2 66 e8 bd 7c 92 82 be 1d 23 a0 3e
       -0.17976904 -0.113477364 -0.25502384 0.3127679
000020 e4 ff de 3d d9 96 a4 be d4 b4 9c 3e 65 0f a1 3e
       0.10888651 -0.32146338 0.3060671 0.31457058
000030 2c 4b 84 be fe db 36 be c9 49 a8 3e 5e d8 7d be
       -0.25838602 -0.17857358 0.32868794 -0.24789569
000040 0f f5 dc 3d c7 f2 42 be eb 65 b1 3d 53 fe 14 be
       0.10788929 -0.19037925 0.086620174 -0.14550142
000050 1e 61 4d 3e 09 8e db bd c0 7f 19 3e 0e 3a 85 3e
       0.20056579 -0.107204504 0.14990139 0.26020855
000060 9e 51 8a be 1e f3 45 be 14 23 47 3e 8c 45 64 3e
       -0.27015394 -0.19331023 0.19446975 0.22292155
000070 25 15 63 be c3 ad fc 3d b9 6b 16 3e 60 8e 54 3d
       -0.22176035 0.1233783 0.1468953 0.051893592
000080 f2 6f f0 bd 7d f2 ba be 48 d7 57 3e 78 f9 fb bd
       -0.11740102 -0.3651313 0.21078217 -0.12303442
000090 5b e3 0c be 53 7e 4a be 17 5e 31 be 73 ac e2 3d
       -0.13758604 -0.19774751 -0.17321049 0.11068048
0000a0 29 62 d1 3d fb 64 fe bd 4d ff 1b be a5 54 01 3e
       0.10223801 -0.12421604 -0.15234108 0.12629946
0000b0 98 01 5e be 8c a8 85 be 1a 77 88 3e 4b 18 32 3e
       -0.21680295 -0.26105154 0.26653367 0.1739208
0000c0 a0 53 b0 be 40 03 70 be 6d 99 c4 bd 87 c4 75 be
       -0.344388 -0.2343874 -0.09599576 -0.2400075
0000d0 45 d7 98 be 1a c7 b9 3e 0e 2e af be 6e c7 1b be
       -0.29851738 0.36284715 -0.34214824 -0.15212795
0000e0 e9 ab 0d bd ef c7 d9 3d 37 33 42 3d cb 45 e7 3d
       -0.034587774 0.106338374 0.047412124 0.11292609
0000f0 94 4b a7 bd d2 2e 82 3d f8 41 3c be 1c ad 3f be
       -0.08168712 0.063565865 -0.1838454 -0.1871838
000100 3b 3e e0 3c 4d 5a 8a 3e 02 2a 9e 3d ce eb 3b bb
       0.027373424 0.2702202 0.07722856 -0.0028674486
000110 f2 5f 76 3e a1 26 7b be 4c 1a 81 be 03 0d a1 bd
       0.24060038 -0.24526455 -0.25215375 -0.0786381
000120 82 a1 af be e7 2d 8b bd cc cc 80 3d f6 2b 85 bd
       -0.34302908 -0.067958646 0.06289062 -0.065025255
000130 ba 02 8b be 5b 7a 5d bd 01 2f bc be 3f 92 33 be
       -0.27150518 -0.054071765 -0.3675461 -0.17536257
000140 0b 13 5b be 65 3c 86 3e 64 7b 61 be f7 dd 91 be
       -0.21393983 0.26217952 -0.22019726 -0.28489658
000150 a9 7e a4 3c 89 6d 4a 3e a7 0c 94 be 7f bf 8f 3d
       0.020079928 0.19768347 -0.28915903 0.07018947
000160 13 b3 2a be a9 5f ee bd 7e b9 77 bd ea 4e bb be
       -0.16669874 -0.116393395 -0.060479634 -0.36583644
000170 5c e3 5a bd 21 40 82 bd 82 99 8b 3b ad c9 8f be
       -0.053439483 -0.06359888 0.004260243 -0.28083554
000180 d6 b6 2a 3e 4a 72 8c 3c 86 8a 2e be b4 d5 e9 bd
       0.16671309 0.017144341 -0.1704503 -0.11417714
000190 38 af 4e 3e d8 1b 9e 3d 0c 61 0a 3e bf e9 68 3e
       0.20184028 0.077201545 0.13513583 0.22745417
0001a0 67 ff 94 3e e9 d4 98 3e 52 05 a2 bd dc 3f 87 be
       0.29101107 0.29849938 -0.07911171 -0.26415908
0001b0 00 e8 69 3e f6 22 06 3e be 33 9b bd 35 4b 33 3d
       0.22842407 0.13099274 -0.075782284 0.043772895
0001c0 20 05 60 be c1 8b bd bc 18 04 b0 be 9a 51 38 be
       -0.21876955 -0.023137929 -0.34378123 -0.17999879
0001d0 85 b8 4f 3e 98 bb 65 bd ae fb f8 3d 62 5c f1 bc
       0.20285232 -0.056087106 0.12157379 -0.029462997
0001e0 42 e6 b5 be 56 9a cd bd 55 4d c9 3d 83 3a b5 be
       -0.35527235 -0.10039203 0.09829203 -0.35396203
0001f0 ba de 80 bb 0d a5 32 3e 62 ce 17 be 3e 85 26 3d
       -0.003932801 0.17445774 -0.14824823 0.040654413
000200 e1 a3 5a be 8a da 96 3d 07 d3 39 be d2 a2 fb 3d
       -0.21351577 0.07365902 -0.18146907 0.12286915
000210 15 62 6c be 25 f1 e7 3d a5 a9 45 be 82 6e 93 bd
       -0.2308429 0.113252915 -0.19302996 -0.07198812
000220 8d 03 64 be 91 12 9c be 38 da 6e 3e ba 09 00 3e
       -0.2226698 -0.30482915 0.23325431 0.1250371
000230 b7 f6 b4 be 51 13 bd bc b4 cd 18 3e 36 f6 78 be
       -0.35344478 -0.0230805 0.1492222 -0.24312672
000240 dc e1 1e 3e dc 2a fc bd 7d 3e 95 be c7 56 a1 bc
       0.15515846 -0.12312862 -0.29149237 -0.019694699
000250 fe 04 a2 3d 5e d9 1d 3e b3 fd 97 3d d6 14 ad bd
       0.079111084 0.1541495 0.07421436 -0.0845124
000260 4c 3a a6 be e8 04 9b 3e 53 ae 4c be 69 bc 66 3e
       -0.32466352 0.3027718 -0.19988374 0.2253281
000270 e7 4c 66 be 31 dc 82 3e 00 5c 77 3e 74 88 1e 3e
       -0.22490273 0.25558618 0.24156189 0.1548174
000280 8f 46 de bd 5d e4 7f be 5a 97 a9 3c 70 b9 d7 3d
       -0.10853302 -0.24989457 0.020702053 0.10533416
000290 0e eb 8c bd 45 b9 c0 be fb a0 a4 3e f7 39 86 3d
       -0.068807706 -0.3764135 0.32154068 0.06554025
0002a0 d9 2f bc be e7 5f 8c bd 83 2c 86 3e 5c a9 84 be
       -0.36755255 -0.068542294 0.26205835 -0.2591046
0002b0 04 ee 48 be 20 87 93 3e 2d c2 3e be 9e b8 bb 3d
       -0.19622046 0.2881403 -0.1862876 0.09166072
0002c0 27 97 98 be 74 a3 95 3e 1b a3 f7 bc 60 3f 7b bc
       -0.2980282 0.29226267 -0.030229142 -0.015334934
0002d0 e5 c0 d6 be c4 55 d8 3e 52 07 5b 3a f9 1f 8a 3e
       -0.41944042 0.42252934 0.0008355278 0.26977518
0002e0 82 9a 76 bd 5d 08 d2 3a 43 31 7b bc 8c fe f9 bb
       -0.060205944 0.0016024221 -0.015331569 -0.0076292213
0002f0 ec 16 a8 3e d8 98 92 be 3f bb 8b be 37 05 99 3d
       0.32829988 -0.28632236 -0.27291295 0.07471698
000300 b9 8c 57 be 88 e1 b6 3d a4 f9 83 3e e2 6b d2 3d
       -0.21049775 0.089297354 0.25776398 0.10274483
000310 d0 23 3c be ab 17 20 be 95 57 3e be 26 ba 5e 3e
       -0.18373036 -0.15634029 -0.18588097 0.21750697
000320 5f 8e 86 3e ce 82 2d 3e df f1 98 3e 6c 1c 3f 3e
       0.26280496 0.1694443 0.29872033 0.18663186
000330 d7 47 a1 be 08 15 85 3e 8d e9 9a 3e bc bd 84 be
       -0.31500122 0.25992608 0.3025631 -0.25926006
000340 52 d6 86 ba 9a 2b d1 3c 70 19 11 be 41 fe 33 be
       -0.0010287261 0.025533486 -0.1416986 -0.17577459
000350 f3 7d 8b 3e a6 2e 13 be 5b 35 b4 3d ab 39 53 be
       0.2724453 -0.14373264 0.08799239 -0.20627467

model/conv2d/Conv2D_bias f4 [8]
000000 81 e5 07 3e 61 4d 2f bd 79 87 fb 3d b5 a6 96 be
       0.13271143 -0.042798404 0.12281699 -0.29424062
000010 24 c8 b0 bd 68 be 89 be c3 ef a2 3e 41 77 a7 3d
       -0.08631924 -0.2690308 0.3182355 0.08177043

model/conv2d_1/Conv2D/ReadVariableOp f4 [16, 1, 1, 8]
000000 c6 95 b4 3e 69 bc 86 bd 10 38 e0 be 2d 07 98 be
       0.35270518 -0.06578905 -0.43792772 -0.29692975
000010 7d 08 89 3e 98 43 d3 3e 9f b6 24 3f 1a ba e9 bd
       0.2676429 0.41262507 0.6434116 -0.11412449
000020 19 58 56 bd 76 bd a1 3d e5 e5 ab be 73 f6 04 3f
       -0.05233011 0.07897465 -0.33573833 0.5193855
000030 3c 27 ad be f5 57 59 3e ed 7d 18 bc a1 9b 06 bf
       -0.33818996 0.21224959 -0.009307367 -0.5258122
000040 ad 43 61 3e 3c c3 36 be 3b 77 07 3f 0f bb 81 3e
       0.21998473 -0.17847914 0.52916306 0.25338027
000050 1e 52 6f be c9 71 31 3f d5 88 dd be 0a e5 d9 3d
       -0.23371169 0.6931425 -0.43268457 0.10639389
000060 e0 b8 26 bf da 70 fd be c1 f7 13 3e ed e1 3d 3f
       -0.65125847 -0.4950016 0.1444998 0.7417286
000070 cf 86 cd 3e 3f b9 e2 3e 92 53 8d 3d e4 3a 13 3f
       0.40141913 0.44281957 0.069007054 0.57511735
000080 30 ce 2f 3e a9 75 7f be 03 36 19 3f 33 12 c0 be
       0.17168498 -0.24947228 0.5984804 -0.37513885
000090 99 d1 26 bf 59 80 37 be e7 53 0f 3f 60 2b c0 be
       -0.6516357 -0.17920054 0.559874 -0.37533092
0000a0 db b1 b8 3d 33 f8 04 bf 7b b4 5e bc 51 f7 1d 3e
       0.09018298 -0.5194122 -0.013592835 0.15426375
0000b0 10 08 5b be c7 0f ea be c4 d6 65 3e 31 e4 f1 3d
       -0.21389794 -0.45715162 0.22445208 0.11811102
0000c0 08 c2 01 3f 3e 4b e0 be 16 73 03 bf 8b 2c e7 be
       0.50686693 -0.43807405 -0.5134748 -0.4515117
0000d0 6e 00 74 bd 36 10 fb 3e 7e 96 fa 3e da 4b 20 bf
       -0.059570722 0.49035805 0.4894294 -0.6261574
0000e0 16 55 c2 be 75 d0 04 3f d9 b3 2a 3e f9 27 87 be
       -0.3795554 0.5188058 0.16670169 -0.26397684
0000f0 6e dd ee 3d 34 01 f5 3e 8a 82 eb 3e f7 20 06 3f
       0.11663328 0.4785248 0.4599803 0.5239405
000100 aa 07 1f 3e d9 07 c6 be 10 ee a2 be 1a fd ce 3e
       0.15530267 -0.38677862 -0.31822252 0.40427476
000110 c0 9e 10 bf 34 63 88 be e5 f6 b5 bd 8b 36 48 bd
       -0.56492233 -0.26638186 -0.08884982 -0.04888014
000120 b0 53 8f bd ce 2b 29 3e a9 4d 72 bd 86 a4 c4 be
       -0.06998384 0.16520616 -0.059156094 -0.3840677
000130 ce b8 45 3f e5 2f 81 3e 1e 61 1f 3f e0 5a 1e 3e
       0.77235115 0.25231853 0.62257564 0.15464354
000140 5b e4 cc be b2 8b 3a bf 3e 63 23 3f 5f 47 ae 3d
       -0.4001797 -0.7286941 0.63823307 0.08509707
000150 53 f1 94 be fa 9f 1e 3f 26 d0 26 3f 2d 40 30 bf
       -0.29090366 0.61962855 0.6516136 -0.68847924
000160 67 2a 84 3e 5b d8 9d 3c 12 67 5c bd a6 88 9f be
       0.258136 0.019268205 -0.053809233 -0.31158942
000170 9f a3 02 3f 23 98 e9 3d 38 07 48 be 2c bd 94 3d
       0.51030916 0.11405971 -0.19534004 0.07262644
000180 0b 48 85 3c 4e e5 16 3f 71 11 fc 3c 54 83 19 bf
       0.016269704 0.5894364 0.030770035 -0.59966016
000190 db 8f b1 be 1a 51 0e 3e 8d 97 95 3e 6c 2d 70 3e
       -0.34680066 0.13898125 0.29217187 0.23454827
0001a0 0c 6a fe 3e 80 3b 29 be 32 9a b7 3e 67 22 c4 3e
       0.49690282 -0.16526604 0.3585983 0.38307497
0001b0 e4 5e ef 3e 96 d1 19 be fa 6c 1e bd 9e 68 f8 3d
       0.46752083 -0.15021357 -0.038678147 0.12129329
0001c0 16 f8 95 3e 8d fd 14 3f ae 46 2a bf 18 49 ec be
       0.29290837 0.5819939 -0.665141 -0.46149516
0001d0 c2 6c 0f bf 1d f6 2d 3f b6 d4 a1 be e5 5b 90 be
       -0.56025326 0.67953664 -0.31607598 -0.2819511
0001e0 ec 0f 3b 3f 43 ac a3 3d a9 ae 53 be 19 b7 9c be
       0.7307117 0.07991841 -0.20672096 -0.30608442
0001f0 f0 a8 9f be 25 a0 fe 3d 67 f4 5b bd 2b b1 db 3e
       -0.31183577 0.12432889 -0.053699877 0.42908606

model/conv2d_1/Conv2D_bias f4 [16]
000000 31 c9 79 be 35 1a 55 3e 32 42 40 be 6d 86 55 be
       -0.24393155 0.20810778 -0.18775252 -0.2085206
000010 dd e8 65 3c 3f 08 7d 3e f4 7c 25 3e 61 02 03 bf
       0.01403257 0.24710177 0.16160947 -0.51175505
000020 b0 42 ba 3e d2 4a a4 be 74 5b 92 bd 9c 39 02 be
       0.36379004 -0.32088333 -0.071463495 -0.12717289
000030 76 2b 96 be 65 38 bd be 66 15 33 3e ee 54 7a bd
       -0.29330033 -0.36957088 0.17488632 -0.06111615

model/conv2d_10/Conv2D/ReadVariableOp i1 [48, 1, 1, 64] scale=0.0038775716 zero_point=0
000000 bb 22 a8 0c 14 01 3e 46 23 ec 29 b8 d8 ce 16 c1
       -0.26755244 0.13183743 -0.3412263 0.046530858 0.07755143 0.0038775716 0.24040943 0.27143002 0.13571501 -0.07755143 0.15898043 -0.27918515 -0.15510286 -0.19387858 0.08530658 -0.24428701
000010 f0 d4 38 d9 67 51 d5 19 d5 22 3a 41 5d 19 38 f2
       -0.062041145 -0.17061315 0.21714401 -0.15122528 0.39938986 0.3140833 -0.16673557 0.09693929 -0.16673557 0.13183743 0.22489914 0.25204214 0.36061415 0.09693929 0.21714401 -0.054286003
000020 ab fc ea 35 be 49 e3 03 1e c4 46 bf 17 3b 31 d7
       -0.32959357 -0.015510286 -0.08530658 0.20551129 -0.25591972 0.28306273 -0.11244957 0.011632714 0.116327144 -0.23265429 0.27143002 -0.25204214 0.08918414 0.22877672 0.19000101 -0.15898043
000030 4e 18 c7 ee 1a 17 df ab e5 07 c8 26 20 08 15 1f
       0.30245057 0.093061715 -0.22102158 -0.06979629 0.10081686 0.08918414 -0.12795986 -0.32959357 -0.10469443 0.027143002 -0.21714401 0.14734772 0.12408229 0.031020572 0.081429005 0.12020472
000040 c3 fa ee de fe e4 27 38 bf e5 23 06 ef e7 e9 fc
       -0.23653187 -0.023265429 -0.06979629 -0.13183743 -0.007755143 -0.108572006 0.15122528 0.21714401 -0.25204214 -0.10469443 0.13571501 0.023265429 -0.065918714 -0.09693929 -0.08918414 -0.015510286
000050 34 da c6 be e1 fd 26 f8 2a e9 66 07 ee 2e 20 2a
       0.20163372 -0.14734772 -0.22489914 -0.25591972 -0.12020472 -0.011632714 0.14734772 -0.031020572 0.16285801 -0.08918414 0.3955123 0.027143002 -0.06979629 0.17836829 0.12408229 0.16285801
000060 f1 bd ec e2 01 22 2e 34 c3 2e 56 06 de cb ca e5
       -0.058163572 -0.2597973 -0.07755143 -0.116327144 0.0038775716 0.13183743 0.17836829 0.20163372 -0.23653187 0.17836829 0.33347115 0.023265429 -0.13183743 -0.20551129 -0.20938887 -0.10469443
000070 c2 22 09 e2 b2 b8 ca db fb b8 24 e3 05 f1 0a f1
       -0.24040943 0.13183743 0.034898143 -0.116327144 -0.30245057 -0.27918515 -0.20938887 -0.14347015 -0.019387858 -0.27918515 0.13959257 -0.11244957 0.019387858 -0.058163572 0.038775716 -0.058163572
000080 a5 36 1c 21 2c 61 cc 59 0e 40 fc cc ca 44 06 d5
       -0.35285902 0.20938887 0.108572006 0.12795986 0.17061315 0.37612444 -0.20163372 0.34510386 0.054286003 0.24816458 -0.015510286 -0.20163372 -0.20938887 0.26367486 0.023265429 -0.16673557
000090 48 f1 fe 45 f9 36 32 e4 35 b8 02 65 ba 38 36 f3
       0.27918515 -0.058163572 -0.007755143 0.26755244 -0.027143002 0.20938887 0.19387858 -0.108572006 0.20551129 -0.27918515 0.007755143 0.39163473 -0.27143002 0.21714401 0.20938887 -0.05040843
0000a0 e4 5a 22 5a ed 2b cf 3c 07 ea 3d 16 31 d5 3c d8
       -0.108572006 0.34898144 0.13183743 0.34898144 -0.07367386 0.16673557 -0.19000101 0.23265429 0.027143002 -0.08530658 0.23653187 0.08530658 0.19000101 -0.16673557 0.23265429 -0.15510286
0000b0 33 de ed ae d3 c2 02 17 41 48 d4 0e ff 31 37 16
       0.19775616 -0.13183743 -0.07367386 -0.31796086 -0.17449072 -0.24040943 0.007755143 0.08918414 0.25204214 0.27918515 -0.17061315 0.054286003 -0.0038775716 0.19000101 0.21326643 0.08530658
0000c0 19 27 0a 18 1c f6 8b 01 d7 d3 f6 dd dd 28 48 2d
       0.09693929 0.15122528 0.038775716 0.093061715 0.108572006 -0.038775716 -0.45367587 0.0038775716 -0.15898043 -0.17449072 -0.038775716 -0.13571501 -0.13571501 0.15510286 0.27918515 0.17449072
0000d0 0f 21 bc 2c ed 08 1c d6 22 be f6 f4 0b fe cf 1a
       0.058163572 0.12795986 -0.26367486 0.17061315 -0.07367386 0.031020572 0.108572006 -0.16285801 0.13183743 -0.25591972 -0.038775716 -0.046530858 0.04265329 -0.007755143 -0.19000101 0.10081686
0000e0 55 51 51 19 11 47 25 43 1e 33 ed bd f1 2a e8 53
       0.32959357 0.3140833 0.3140833 0.09693929 0.065918714 0.27530757 0.14347015 0.2597973 0.116327144 0.19775616 -0.07367386 -0.2597973 -0.058163572 0.16285801 -0.093061715 0.32183844
0000f0 d5 b2 4d 13 55 1d c0 32 f6 d0 49 5b f4 06 30 1a
       -0.16673557 -0.30245057 0.29857302 0.07367386 0.32959357 0.11244957 -0.24816458 0.19387858 -0.038775716 -0.18612343 0.28306273 0.35285902 -0.046530858 0.023265429 0.18612343 0.10081686

model/conv2d_10/Conv2D_bias f4 [48]
000000 74 e6 0b be f9 90 a8 3e 66 e2 8c be a4 fc 96 be
       -0.1366213 0.32923105 -0.27516478 -0.29489625
000010 67 14 75 3e f5 f1 21 be 64 a6 6e bc 2a b4 3e 3e
       0.23933564 -0.15814956 -0.014566038 0.18623415
000020 7a 3e 1a be f6 36 87 bd d5 e6 fb bd 89 00 d5 bd
       -0.15062895 -0.0660228 -0.12299887 -0.10400493
000030 16 86 27 3e 3e 4d 4a 3c 22 af c2 3e 36 02 25 3e
       0.16359743 0.012347518 0.3802424 0.16114125
000040 3f cb c7 3d 40 a5 e2 3e b0 c5 e6 3d 36 38 58 3e
       0.09755563 0.442667 0.11268175 0.21115193
000050 3a d5 3c 3e 49 3c 65 bc 11 81 79 3e 36 87 92 be
       0.18440714 -0.013991424 0.24365641 -0.28618783
000060 2b df 27 3e 89 77 c8 3d 5e f9 f1 3d ce 9d 62 be
       0.16393726 0.097884245 0.11815141 -0.2213051
000070 8b c0 d0 bd 32 4c 42 bd eb da 4e be 2a 8b 71 3e
       -0.10192975 -0.047435947 -0.20200698 0.23588243
000080 1d a3 f5 3d 7c 8e 0f be 29 40 28 be 11 37 b3 3d
       0.11994002 -0.14019197 -0.16430725 0.087507375
000090 c1 3c db 3d f3 ad b9 bd 93 e3 0b 3d 95 35 a5 3e
       0.10704947 -0.09066381 0.03415258 0.32267442
0000a0 f6 4d 6d be d3 7b 6d 3e f4 1d d3 3d 2d 09 68 be
       -0.23174271 0.23191766 0.103084475 -0.2265975
0000b0 9e 97 87 3e a8 c3 e5 be 92 fa a1 3d ff 57 1e 3e
       0.26482862 -0.44875836 0.079091206 0.15463255
